trained_nets/synt-rec pipeline/rec_net32.pth (torch, 980484 bytes, 10 tensors)

conv0.weight f4 [96, 3, 5, 5]
00000000: 0fe5 af3c 6b4e 263e aac0 9a3d 2d37 2b3e
00000010: d601 2e3c 4236 12bd c92a e33d f49d 273e
00000020: 3173 2ebd be61 913d 92ff 6abc 6956 273e
00000030: 19c2 2fbd fc41 bf3d c633 1c3e ad85 7cbd
00000040: 39aa 61bd 66e6 013e 81d1 c53c afcd 1c3e
00000050: bbbc 3dbd cbd0 1e3e cb78 853d 365e 083e
00000060: c575 f9bc 6760 f7bd de09 403d ab6a 1fbe
00000070: b327 98bd 3367 4b3d 63a3 21be cf28 1dbe
00000080: 90bd 83bd c8e7 b9bd 0b79 a7bd ddfd 2dbc
00000090: 3a4f 13be 8b61 fbbd c1c4 96bd f6ae 4ebd
000000a0: 0d83 673c aeab 29bd c8b0 1abd 715f f0bd
000000b0: 6431 3fbd 6eff 4fbc 7cfa 8fbc 5036 84bd
000000c0: 848e f6bd 3d3b b6bd 4d99 f53d ae80 1b3e
000000d0: 5219 d43b 129d 00bb 749d cbbb 349f be3d
000000e0: eb25 b4bb 9972 c53d 7755 9c3d 06e8 e23a
000000f0: 8f8d 87bd c9e6 35bd 4bdb 8f39 e3ce a53c
00000100: 39c0 cd3d a368 be3d 9165 fb3d 4128 ef3d
00000110: 5c6a 3cbb 4d20 013e 419c 0e3d 1973 6ebd
00000120: f197 88bd 3a3e 64bc c120 f93d fc96 c93d
00000130: 9084 223e 1ccf 2b3e 0e34 0b3e 5275 183d
00000140: 6fd9 a23d a5c2 3c3e 0723 183e bb21 78bc
00000150: 6df4 2dbb 5517 213e 48f4 f73d b382 123e
00000160: e889 6d3c d94c 3a3a e6d6 c83d 746a 3a3e
00000170: 9e6a 1d3c 4fb5 2a3e 6094 063e 8d50 643d
00000180: 5f9d 253c f22a fdbb 0825 5d3d dfe4 403d
00000190: d511 02bd 4f76 0d3d 4261 203d 9cd6 04bd
000001a0: a5f9 babb 4a02 bbbd c927 c3bd 939e 543d
000001b0: 190a e5bd f131 05be 131c a5bd 78ae 3d3d
000001c0: 7fd6 07be a70f 8cbd 7934 e1bd 0609 573d
000001d0: 93f1 d8bd 7dcb c8bd fb68 d4bb 0f3c 243d
000001e0: 5c44 db3d 2a16 ae3d 59ac cdbd d2d7 993d
000001f0: fb2f d03d 48c6 c73d a5a0 06be a814 773d
00000200: 7714 a1bd 401f 2bbd 632a 7b3d 1a1b 27bd
00000210: 0dd6 8c3d b910 debd ac4f 35bd 0d74 ba3a
00000220: 7688 14be 4522 d5bd 40f5 b43d 4317 fa3c
00000230: f47f 60bd d06d 843d 6676 9e3d 6c9e cebd
00000240: 0d26 a8bd 4579 54bd 8e83 5fbd 99f2 3bbd
00000250: 151a a1bd 6f28 b03c 0d38 ddbb 8a12 113c
00000260: 7133 2fbd a7ed 3fbd 06ff 923d a38a 53bd
00000270: f289 abbd ad55 0cbe 3e9b b1bd 3589 a13d
00000280: fccf cabc 2223 12be d9ad 12be e34f 4f3d
00000290: 1f25 04bd 77b6 1bbe ad15 1ebe 6199 a8bd
000002a0: ec36 1dbd de2b 77ba 86ec b43c 85f8 92bd
000002b0: 9af0 1bbe f4b2 0d3c 8d11 b6bc 725d 9bbd
000002c0: b041 a43d cc75 c2bd 4b66 67bd 3fef 3d3c
000002d0: 73de 123d 9b82 943d 5bc3 073c 921f 163d
000002e0: 73e7 833d 9dd5 c23d 259b 8fbb 42bc b13d
000002f0: 7ea3 b9bd 2c09 b9bd 9ab5 a4bc 5461 e03d
00000300: 54f0 6a3d 24b9 89bd 0e46 74bd 6fce 3cbc
00000310: 588b 41bd ab1d 3abd e2a1 eebc d4a0 ff3d
00000320: 7bf2 ddbc d493 033e 312e 0b3e 34f1 5b3d
00000330: 6cf1 513d 1ec9 4c3d 8a26 b63d 070f 0b3d
00000340: 1806 143c 188b d23b c034 c3bc a2fb 113e
00000350: 236b 903d 2161 273e 6eaa af3d a73d 023e
00000360: 116d 0b3e 97c2 113d 8de8 263e 7172 0e3e
00000370: a2ec 9b3d 54c7 293e 64e5 4bbb a012 393e
00000380: 7825 dc3c 785b 08be 7588 eebc e377 983d
00000390: f38f 94bd 724e 64bd 4326 a6bc a40e d9bd
000003a0: e84e 7dbd d266 843d cb6e 15be 4a3b 643a
000003b0: e03b b5bd 4e1a 33bd ba70 3bbd 4bf0 e0bd
000003c0: f15e 0bbe 3d78 bd3c 60ec a2bd b49b 8f3d
000003d0: 462d b7bd 0e4a 803b 3fd3 da3c ad6d a3bd
000003e0: ad8f 4ebd 3ed0 b8bd 2f64 333d 35e1 06bd
000003f0: 1db3 e03d 8e48 aabc d17c a1bb 6252 55bd
0.021471528 0.16240852 0.07556279 0.16720267 0.010620555 -0.035696276 0.11092145 0.16368848
-0.042590324 0.07098721 -0.014343159 0.16341557 -0.042909715 0.093387574 0.15254125 -0.06165092
-0.055093978 0.12685546 0.02414775 0.15312837 -0.046322566 0.15509336 0.0651718 0.13317189
-0.030451665 -0.12078934 0.04688441 -0.15568034 -0.07429447 0.049658965 -0.15784983 -0.15347598
-0.064326406 -0.09077412 -0.08177384 -0.010619608 -0.14385691 -0.12274464 -0.073617466 -0.050459825
0.014130366 -0.041423492 -0.037766248 -0.11736954 -0.046677962 -0.0126951765 -0.017575495 -0.06455672
-0.120389014 -0.088980176 0.119921304 0.15185806 0.006472745 -0.0019624871 -0.0062138382 0.09307709
-0.0054976842 0.096409984 0.076334886 0.001731158 -0.06618797 -0.044409547 0.0002743847 0.020240253
0.10046429 0.092973016 0.12275232 0.116776 -0.0028749919 0.12609978 0.034816984 -0.058215234
-0.066696055 -0.013930852 0.121644504 0.09843251 0.15870881 0.16778225 0.13594076 0.03722126
0.079516284 0.18433626 0.14857112 -0.015144761 -0.0026543394 0.15731557 0.1210714 0.1430767
0.014498211 0.0007106788 0.098066136 0.18204671 0.009607939 0.16670726 0.13142538 0.05574088
0.010108321 -0.0077260667 0.053990394 0.04709327 -0.031755287 0.034536656 0.039155252 -0.03243123
-0.0057060295 -0.09131296 -0.09529073 0.05190904 -0.111835666 -0.13007332 -0.08061995 0.046308964
-0.13265418 -0.06838923 -0.109963365 0.05249884 -0.105929516 -0.09804437 -0.006482241 0.04009634
0.10706398 0.08500321 -0.10042638 0.075118676 0.101654015 0.09754616 -0.13147219 0.060322434
-0.078652315 -0.04177785 0.06131972 -0.04079733 0.068767644 -0.10843033 -0.044265434 0.001422526
-0.1450518 -0.10406927 0.0883584 0.03052867 -0.054809526 0.064662576 0.077374265 -0.1008881
-0.082103826 -0.051873464 -0.05456882 -0.045885656 -0.07866303 0.021503655 -0.0067510665 0.008854518
-0.042773668 -0.046857502 0.07177548 -0.051645886 -0.0837592 -0.13704558 -0.08672188 0.07887498
-0.024757378 -0.14271215 -0.1432413 0.050613295 -0.032261964 -0.15206324 -0.15437956 -0.0823238
-0.038382456 -0.0009428839 0.02208544 -0.071763076 -0.15228501 0.008648623 -0.022225166 -0.07586183
0.080203414 -0.09495124 -0.05649404 0.011592685 0.035856675 0.072514735 0.0082863225 0.0366512
0.0644063 0.095134 -0.0043825083 0.086784855 -0.09064387 -0.090349525 -0.020106126 0.10956064
0.0573581 -0.06724766 -0.05963712 -0.011523827 -0.04725203 -0.04543845 -0.029129926 0.124818474
-0.027093163 0.1284936 0.1359184 0.053696826 0.05125563 0.049996488 0.088940695 0.033949878
0.009034656 0.0064252727 -0.023828864 0.14256147 0.07051685 0.16345645 0.08577429 0.12718831
0.13615824 0.035585966 0.16299649 0.13910843 0.076134935 0.16579944 -0.003111207 0.18073511
0.026873335 -0.13316143 -0.029117802 0.074447416 -0.07254019 -0.055738874 -0.020281916 -0.105984956
-0.06184283 0.06464924 -0.14593045 0.00087063445 -0.08849311 -0.043726258 -0.0457618 -0.10983332
-0.13610436 0.023128623 -0.07955241 0.0701212 -0.08944182 0.003915078 0.026712058 -0.07979903
-0.05042999 -0.09024094 0.043796714 -0.032929618 0.10971663 -0.02078655 -0.0049282094 -0.05208052

conv0.bias f4 [96]
00000000: bd45 f93d 169e 933d 6d13 bc3d 086c 46bb
00000010: 685c a43c 9355 8dba 67fa 63bd 778d f23d
00000020: c490 8bbc 13a5 b4bc f5d6 a5bd dec0 2839
00000030: 6433 c9bd 3fb4 e13c c863 f33c 3307 3a3c
00000040: e834 53aa 7913 8f3c c32f c1bd 1c99 223d
00000050: 4afa 593d 0b23 dc3d 824d 763d a667 f13d
00000060: 4f4a 7c3d 69b3 86bd d236 183d 83d9 573d
00000070: 4988 763d 0a6e 04bd 84f0 42bd 3a0a 0a3d
00000080: 1622 d43d 3e8b 37bc b65b 973d 7920 20bd
00000090: 9cb4 04bd 3c24 433d 696c ec3d dc36 a9ba
000000a0: 2cf7 a7bc 01e7 babd 8e61 073d 256e 77bb
000000b0: 1428 a1bd 4390 653c 52f5 ddba 5f62 713d
000000c0: eaf7 8c3d a8b3 91bb 68b8 55bd 59fd 893d
000000d0: f77b cabc 6cdd f0bc 0892 623d 7f90 8a3d
000000e0: bf05 76bd c50c 1d3d c637 3ebd e05e 323d
000000f0: 0d2f 5d3d c8f8 a6bc 28bb 9c3d ce6f bf3d
00000100: 0ae8 c8bd 7f72 063d f975 193d 25b4 41b2
00000110: 475e 70bd 9376 12bd 3468 90bd 9e79 1fbb
00000120: 0d06 fd3c d5b2 4bbc d4a3 7c3d 6ac5 ffbc
00000130: ace0 0fba b931 d999 41f5 d33d 3205 61bd
00000140: 8f6e 7cbc 433d 98bd bcf0 c6bd 5a5b 143a
00000150: d839 a5ba 4195 d3bc f75c 853d a016 afbd
00000160: c2ba 50bd 77d9 a93d 5cb0 ed3d d1eb 2e3d
00000170: ef83 c6bd 2da4 c23d 1928 263d 9c5c 053d
0.12171505 0.07207887 0.09183393 -0.0030276794 0.020063594 -0.0010782949 -0.055658724 0.118433885
-0.017036803 -0.02205137 -0.080976404 0.00016093577 -0.09824255 0.027551768 0.029710665 0.0113542555
-1.875892e-13 0.01746534 -0.09432938 0.039696798 0.05321721 0.107488714 0.06013251 0.117873475
0.061594304 -0.065771885 0.037161656 0.05269767 0.060188565 -0.032331504 -0.047592655 0.03370116
0.10358064 -0.0112026315 0.07390539 -0.03909347 -0.032398805 0.047641978 0.11544115 -0.0012910026
-0.020503603 -0.09126092 0.03305202 -0.003775486 -0.078689724 0.014011445 -0.0016934073 0.058931705
0.06883223 -0.0044464655 -0.052177817 0.06737775 -0.024717314 -0.029402457 0.055315048 0.06765842
-0.060064074 0.038342256 -0.04643991 0.04354751 0.05399995 -0.0203823 0.07652885 0.09347497
-0.09809883 0.032824036 0.037466023 -1.1275039e-08 -0.05868366 -0.035757612 -0.07051125 -0.0024333964
0.030886674 -0.012432774 0.061679676 -0.031222064 -0.0005488496 -2.2457357e-23 0.10349513 -0.054936595
-0.015407219 -0.0743356 -0.09713885 0.00056593644 -0.001260574 -0.025828006 0.06511872 -0.08549237
-0.050959356 0.08293431 0.116059035 0.04270536 -0.09693133 0.0950397 0.040565584 0.032559022

conv.weight f4 [96, 96, 5, 5]
00000000: 7349 d33b 93e8 f5bb 6167 a8bc e43e 83bc
00000010: 1cc7 903c 9bb4 753b b264 c3bb 3f5a ebbc
00000020: 7ee5 dbbc 4c10 dfba 7c22 90bc b278 18bd
00000030: c84d aebd cc1c 9abd b9a6 edbc 75c5 1bbc
00000040: 4459 87bc 80b4 5fbc a60c 24bd 11ca aebc
00000050: 15f5 413c 9c38 a73c b865 1a39 5ffa 0cbc
00000060: c498 b9ba 93ce 293c f0e9 31bb 827b 82bc
00000070: 19e6 2c3b 2167 b5bc e8c1 ec3b 777e 99bc
00000080: f227 e33b 03db 873a ebd9 b5bb ec13 6dbc
00000090: e145 09bd aa48 5dbc a0da 933b be3f bdba
000000a0: 8984 9dbb cdcb debb 20fc 06bc b9c5 e63a
000000b0: f08e 2cbc 0c57 043b 3034 373c 0b6e 84bc
000000c0: 20a6 aa3c c942 e43c 79a6 50bc 2309 18bd
000000d0: e0a8 b53c 4424 023c c8d5 a0bc f081 443c
000000e0: 86a3 f1ba a11c 87bc 51ad c33c cac3 15bd
000000f0: ddee b03c 761f 4bbc d441 3c3d 1856 fc3b
00000100: f774 0abd c5b6 a8bb 9ac7 adbc 89d1 8ebc
00000110: 9d66 c5bc 959d a6bb 6f0b 3fbb 1311 57bc
00000120: 0432 9fba f9a6 cebc 0d29 063d ca7a 22bc
00000130: 693b 17bd e309 febb 5208 48b9 e02d 1e3c
00000140: 0c5b 323c 8a03 30bc dba0 943d 1aab abbb
00000150: 507b a13c 9429 e93c ef83 c33b d7c4 cabc
00000160: 96c1 a53b d9d4 253d 5d45 0fbb 5c67 6ebc
00000170: a440 29bd e42f a2bc 4c01 2fbd 4304 86bc
00000180: 81c1 04bd 9177 44bd 38df f139 585c 69bc
00000190: eb4c 86b9 1a2e a6bb 77cd 123d 8b5f 5dbb
000001a0: 8362 a6bc 216e ae3a 147c 7ebc d51d 5a3a
000001b0: 2681 4d3c 0845 4e3c ebd9 723b 904e 23bc
000001c0: 3004 c8bb 36b4 a53b d3d1 c43c 0f1a 3a3b
000001d0: a696 3bbb 2144 223d 483c c83b 39e5 4bbc
000001e0: 3186 bb3a f789 78b8 07aa b33c 80f2 253b
000001f0: c917 b43b 605d e3bb 1a0f 82bc 3eb0 8e3c
00000200: b9b7 80bc e346 37bd a7c3 2a3c 386c ee3b
00000210: 139e 133e 2c25 a73d aae4 dd3c 22bc d33c
00000220: 4f52 8d3c b1eb ef3d be3b f63d 5bc5 283d
00000230: 5be7 df3b b285 c43b 0ca6 6a3d 1cd3 b93c
00000240: 9728 8f3c eb5f 4bbc cda8 c4bc 4d32 e0bc
00000250: 1875 53bc 1843 aa3b f001 8a3c 5890 f13b
00000260: 2d1b c5bc c616 31bc e906 e63c 407a 3f3c
00000270: 4182 4dbc 3225 3bbb 644c 91bc 7aee 243d
00000280: 16bf 6bbc 0227 06bd ce5f 29bd 44c8 d7bb
00000290: ecff 5bbc 8f39 86bb 324d 4bbb 6188 083c
000002a0: 62ba 0bbc 616e 1fbc 60ee 87bb 4b04 293c
000002b0: 3548 9e3d 97d9 093d 892d c5bb 2a2a b13c
000002c0: b370 ec3b 96f3 dc3c ceb5 c53c 5a53 f63b
000002d0: 6c1c d13b 57ad 20bc 5804 493c af22 bcbc
000002e0: caed 0c3c 3bbb a5bc 3188 f6bc fdc3 2fbd
000002f0: 135c 463c 9739 073c 376c d83b 271c 1a3c
00000300: 9172 a1ba ac3c ddbc e581 b3ba 229d f03b
00000310: 6b94 a33c 401d 3c3d 6ac5 f03a 6469 d53c
00000320: ed2b 503b 4bf4 78bc 9c2b aabb f347 95bc
00000330: 5892 a13d e76a 493c 8ec3 a2bb 61e6 c33c
00000340: df76 95bc 7cbb 843d 5d78 17bc 566f 5cbd
00000350: 3a51 12bc 1126 8fbc f3f9 093d 86fd 0dbc
00000360: eedc 8dbc 9f62 36bd 5c95 7e3b 3c95 46bd
00000370: cd2c 1c3c 76b5 823c 9322 263c 7d3a 053a
00000380: 795b d7bc 5b9d 283c 6874 b0bb 5d08 28bc
00000390: 96ff 203a ef62 abba 69f3 9db8 0162 edbb
000003a0: 4e02 b63c 0ab1 8f3b 0d31 863b 8be3 60bc
000003b0: 1404 43bd 17b2 f7bc 5262 163c d3ac cdbc
000003c0: bd23 9cbb d082 35bc db71 7cb9 7b98 ddbc
000003d0: 35f4 09bc 1e17 423c 8df1 8b3c 296f 7b3d
000003e0: 9506 523c 9704 f93c 60e8 d6bb fd16 0fbd
000003f0: db6c f83b a38c 04bc 7bbf b03b a55d 5d3c
0.006447965 -0.0075045316 -0.020557107 -0.0160212 0.017673068 0.0037491682 -0.0059629316 -0.028729556
-0.026842829 -0.0017018407 -0.017594568 -0.03722448 -0.08510929 -0.07525024 -0.029010164 -0.009507527
-0.016522057 -0.013653874 -0.040051125 -0.021336587 0.011838217 0.020412736 0.00014724478 -0.008604615
-0.0014159908 0.010364193 -0.0027147494 -0.015928034 0.0026382266 -0.022143902 0.007225264 -0.018737061
0.006932252 0.0010364953 -0.0055496595 -0.014470082 -0.033513907 -0.013506094 0.004512146 -0.0014438552
-0.004807059 -0.0067991973 -0.008238822 0.0017606533 -0.010532126 0.0020193486 0.011181876 -0.016165754
0.020831168 0.027863877 -0.012735003 -0.03711809 0.022175252 0.007943217 -0.019633189 0.01199387
-0.0018435575 -0.016493144 0.023886355 -0.036563672 0.021598274 -0.012397638 0.045961216 0.007700693
-0.033802953 -0.005148741 -0.021213342 -0.017433899 -0.024096781 -0.005084703 -0.0029151102 -0.013126629
-0.0012145643 -0.025226103 0.032753993 -0.0099169705 -0.036921892 -0.0077526434 -0.00019076586 0.009654492
0.010885965 -0.010743031 0.07257243 -0.0052389028 0.01971212 0.028462209 0.0059666554 -0.024752064
0.0050584776 0.04048619 -0.0021861412 -0.01455101 -0.04132141 -0.019798227 -0.042725846 -0.016359454
-0.032411102 -0.04796559 0.00046133413 -0.014243208 -0.0002561578 -0.0050714137 0.035840478 -0.0033778872
-0.020310646 0.0013307967 -0.015532512 0.00083204854 0.012542998 0.0125897005 0.0037056159 -0.009967461
-0.006104015 0.005056883 0.024025833 0.002839688 -0.002862373 0.039615754 0.0061107017 -0.012444788
0.001430696 -5.9256297e-05 0.021931661 0.0025321543 0.0054959995 -0.0069386214 -0.015876342 0.017418023
-0.015712606 -0.044745337 0.010422624 0.0072760843 0.1441577 0.08161387 0.027086575 0.025846545
0.017251162 0.117148764 0.12023114 0.041203838 0.0068329996 0.005997383 0.05728726 0.022683673
0.01747541 -0.012413005 -0.024006272 -0.027367735 -0.012906335 0.0051959865 0.016846627 0.0073719434
-0.02406081 -0.010808652 0.028079467 0.0116868615 -0.012543262 -0.0028556106 -0.017736621 0.04026649
-0.01438882 -0.032752044 -0.041351132 -0.006585153 -0.013427716 -0.004096217 -0.0031021354 0.0083332965
-0.008528324 -0.009730906 -0.0041482896 0.010315965 0.07728616 0.033654775 -0.006017391 0.02162655
0.007215583 0.02697162 0.024134543 0.0075172605 0.006381562 -0.009806952 0.012269102 -0.022965757
0.008601615 -0.02023088 -0.030094238 -0.04291152 0.012106913 0.008253477 0.006604697 0.009406126
-0.0012317469 -0.02700647 -0.0013695328 0.0073429504 0.019968232 0.045926332 0.0018369381 0.02605123
0.0031764463 -0.015194963 -0.005193187 -0.018222785 0.07889241 0.012293554 -0.0049671596 0.023913564
-0.018245159 0.06481072 -0.009245005 -0.053817116 -0.008930499 -0.017474206 0.033685636 -0.008666402
-0.017317262 -0.044527646 0.003884635 -0.048482165 0.009532166 0.015955668 0.010140079 0.0005082263
-0.026288735 0.010291423 -0.0053849705 -0.0102559 0.0006141601 -0.0013075749 -7.531682e-05 -0.007244349
0.022217896 0.0043851184 0.004095203 -0.0137261255 -0.04761131 -0.030236287 0.009178715 -0.025106823
-0.0047650025 -0.011078551 -0.00024075007 -0.027050247 -0.00842004 0.011846332 0.017082954 0.061385307
0.012818952 0.030397696 -0.006558463 -0.034934033 0.007581336 -0.008090171 0.00539392 0.013511096

conv.bias f4 [96]
00000000: dfd5 abbb 006f 523c 16d8 f8ba ce78 273c
00000010: c664 16bc 5ed1 70bc 9bb3 723c 68e7 80bb
00000020: 45e7 84bb cef6 5fbc b306 a2bc 8efa 713c
00000030: a214 4c3b cd0c 80bc e280 4cbc 8a1c 533b
00000040: 1335 66bb 54ea e7bb 2047 84bb 6b00 913c
00000050: 7f1e a2bc 4dd0 ec3a 99b8 09bc a22d bf3c
00000060: 976c 8b3c ab50 ba3a f938 fe3b cc28 e2ba
00000070: 18eb 583b 6547 873c e757 2d3c d91b 56bc
00000080: f410 b83c f611 553c f604 703c 43b0 213c
00000090: 9ac8 59bc 1298 3cbb 9032 16bb 1a87 f1bb
000000a0: 1d33 2d3c d1d6 0e3c 7486 71bc 9d4b d23b
000000b0: 5770 12bc 3938 8bbb 9c59 c1bb eabe 9eba
000000c0: 5d0d c0bc e367 06bc 83d8 90bb 3a55 9abc
000000d0: fa9d febb 6b8b b33c 906c b83b 04e0 4fbb
000000e0: ce58 003c 24ca ff3b 67df b1ba ea8e 13bb
000000f0: c3b5 153c 050b 273c 70b3 403b 6b11 93bc
00000100: cae5 d1ba ec93 94bb a0bc 45bc e92a b23c
00000110: 18bf cd3a ecdb 5eba 344d 7ebc c85a 143c
00000120: 5ab7 54bc f925 323b e7f9 313b de10 913c
00000130: f242 903b 7f7e 62bc 49fe c43b 604f dabb
00000140: 718c 2f38 7053 3a3c 9b15 5a3b a2ac 473c
00000150: b4d1 8a3b 388b 62bc 3fd4 c83c 3446 6cbc
00000160: 6bc2 623c 4c3d 963c c994 eabb 2371 9abb
00000170: 477e d6ba 5757 e5bb 96be c63c 959e ffb9
-0.0052440013 0.012843847 -0.0018985297 0.010221673 -0.0091793 -0.0146983545 0.014813329 -0.003933836
-0.00405589 -0.013669683 -0.019778585 0.01476921 0.0031140228 -0.015631104 -0.0124819 0.0032213056
-0.003512685 -0.0070774946 -0.004036799 0.017700395 -0.019789932 0.001806745 -0.008405828 0.02333719
0.017019553 0.0014214715 0.0077582565 -0.001725459 0.0033099111 0.016513536 0.01058004 -0.013068163
0.022469021 0.0130047705 0.01464962 0.009868684 -0.013292456 -0.0028777164 -0.0022918321 -0.0073708417
0.010571268 0.008718208 -0.014741529 0.006417705 -0.008937917 -0.0042486456 -0.005900575 -0.001211134
-0.023443872 -0.008203479 -0.0044203415 -0.018839467 -0.007770297 0.021917066 0.005628176 -0.0031719217
0.007833673 0.0078060795 -0.0013570607 -0.0022515603 0.009137574 0.010195498 0.0029403828 -0.017952641
-0.0016013917 -0.004534235 -0.0120688975 0.021748977 0.0015697209 -0.0008501399 -0.015521336 0.009054847
-0.012983168 0.0027183278 0.002715701 0.017708238 0.0044025118 -0.013824104 0.0060117585 -0.0066622943
4.1854048e-05 0.011372432 0.0033277038 0.012187155 0.0042364243 -0.013827138 0.02451527 -0.014421035
0.013840298 0.018339776 -0.00715885 -0.004713194 -0.0016364538 -0.006998937 0.0242608 -0.00048755543

batchnorm.weight f4 [96]
00000000: 0000 803f 0000 803f 0000 803f 0000 803f
00000010: 0000 803f 0000 803f 0000 803f 0000 803f
00000020: 0000 803f 0000 803f 0000 803f 0000 803f
00000030: 0000 803f 0000 803f 0000 803f 0000 803f
00000040: 0000 803f 0000 803f 0000 803f 0000 803f
00000050: 0000 803f 0000 803f 0000 803f 0000 803f
00000060: 0000 803f 0000 803f 0000 803f 0000 803f
00000070: 0000 803f 0000 803f 0000 803f 0000 803f
00000080: 0000 803f 0000 803f 0000 803f 0000 803f
00000090: 0000 803f 0000 803f 0000 803f 0000 803f
000000a0: 0000 803f 0000 803f 0000 803f 0000 803f
000000b0: 0000 803f 0000 803f 0000 803f 0000 803f
000000c0: 0000 803f 0000 803f 0000 803f 0000 803f
000000d0: 0000 803f 0000 803f 0000 803f 0000 803f
000000e0: 0000 803f 0000 803f 0000 803f 0000 803f
000000f0: 0000 803f 0000 803f 0000 803f 0000 803f
00000100: 0000 803f 0000 803f 0000 803f 0000 803f
00000110: 0000 803f 0000 803f 0000 803f 0000 803f
00000120: 0000 803f 0000 803f 0000 803f 0000 803f
00000130: 0000 803f 0000 803f 0000 803f 0000 803f
00000140: 0000 803f 0000 803f 0000 803f 0000 803f
00000150: 0000 803f 0000 803f 0000 803f 0000 803f
00000160: 0000 803f 0000 803f 0000 803f 0000 803f
00000170: 0000 803f 0000 803f 0000 803f 0000 803f
1.0 1.0 1.0 1.0 1.0 1.0 1.0 1.0
1.0 1.0 1.0 1.0 1.0 1.0 1.0 1.0
1.0 1.0 1.0 1.0 1.0 1.0 1.0 1.0
1.0 1.0 1.0 1.0 1.0 1.0 1.0 1.0
1.0 1.0 1.0 1.0 1.0 1.0 1.0 1.0
1.0 1.0 1.0 1.0 1.0 1.0 1.0 1.0
1.0 1.0 1.0 1.0 1.0 1.0 1.0 1.0
1.0 1.0 1.0 1.0 1.0 1.0 1.0 1.0
1.0 1.0 1.0 1.0 1.0 1.0 1.0 1.0
1.0 1.0 1.0 1.0 1.0 1.0 1.0 1.0
1.0 1.0 1.0 1.0 1.0 1.0 1.0 1.0
1.0 1.0 1.0 1.0 1.0 1.0 1.0 1.0

batchnorm.bias f4 [96]
00000000: 0000 0000 0000 0000 0000 0000 0000 0000
00000010: 0000 0000 0000 0000 0000 0000 0000 0000
00000020: 0000 0000 0000 0000 0000 0000 0000 0000
00000030: 0000 0000 0000 0000 0000 0000 0000 0000
00000040: 0000 0000 0000 0000 0000 0000 0000 0000
00000050: 0000 0000 0000 0000 0000 0000 0000 0000
00000060: 0000 0000 0000 0000 0000 0000 0000 0000
00000070: 0000 0000 0000 0000 0000 0000 0000 0000
00000080: 0000 0000 0000 0000 0000 0000 0000 0000
00000090: 0000 0000 0000 0000 0000 0000 0000 0000
000000a0: 0000 0000 0000 0000 0000 0000 0000 0000
000000b0: 0000 0000 0000 0000 0000 0000 0000 0000
000000c0: 0000 0000 0000 0000 0000 0000 0000 0000
000000d0: 0000 0000 0000 0000 0000 0000 0000 0000
000000e0: 0000 0000 0000 0000 0000 0000 0000 0000
000000f0: 0000 0000 0000 0000 0000 0000 0000 0000
00000100: 0000 0000 0000 0000 0000 0000 0000 0000
00000110: 0000 0000 0000 0000 0000 0000 0000 0000
00000120: 0000 0000 0000 0000 0000 0000 0000 0000
00000130: 0000 0000 0000 0000 0000 0000 0000 0000
00000140: 0000 0000 0000 0000 0000 0000 0000 0000
00000150: 0000 0000 0000 0000 0000 0000 0000 0000
00000160: 0000 0000 0000 0000 0000 0000 0000 0000
00000170: 0000 0000 0000 0000 0000 0000 0000 0000
0.0 0.0 0.0 0.0 0.0 0.0 0.0 0.0
0.0 0.0 0.0 0.0 0.0 0.0 0.0 0.0
0.0 0.0 0.0 0.0 0.0 0.0 0.0 0.0
0.0 0.0 0.0 0.0 0.0 0.0 0.0 0.0
0.0 0.0 0.0 0.0 0.0 0.0 0.0 0.0
0.0 0.0 0.0 0.0 0.0 0.0 0.0 0.0
0.0 0.0 0.0 0.0 0.0 0.0 0.0 0.0
0.0 0.0 0.0 0.0 0.0 0.0 0.0 0.0
0.0 0.0 0.0 0.0 0.0 0.0 0.0 0.0
0.0 0.0 0.0 0.0 0.0 0.0 0.0 0.0
0.0 0.0 0.0 0.0 0.0 0.0 0.0 0.0
0.0 0.0 0.0 0.0 0.0 0.0 0.0 0.0

batchnorm.running_mean f4 [96]
00000000: 0000 0000 0000 0000 0000 0000 0000 0000
00000010: 0000 0000 0000 0000 0000 0000 0000 0000
00000020: 0000 0000 0000 0000 0000 0000 0000 0000
00000030: 0000 0000 0000 0000 0000 0000 0000 0000
00000040: 0000 0000 0000 0000 0000 0000 0000 0000
00000050: 0000 0000 0000 0000 0000 0000 0000 0000
00000060: 0000 0000 0000 0000 0000 0000 0000 0000
00000070: 0000 0000 0000 0000 0000 0000 0000 0000
00000080: 0000 0000 0000 0000 0000 0000 0000 0000
00000090: 0000 0000 0000 0000 0000 0000 0000 0000
000000a0: 0000 0000 0000 0000 0000 0000 0000 0000
000000b0: 0000 0000 0000 0000 0000 0000 0000 0000
000000c0: 0000 0000 0000 0000 0000 0000 0000 0000
000000d0: 0000 0000 0000 0000 0000 0000 0000 0000
000000e0: 0000 0000 0000 0000 0000 0000 0000 0000
000000f0: 0000 0000 0000 0000 0000 0000 0000 0000
00000100: 0000 0000 0000 0000 0000 0000 0000 0000
00000110: 0000 0000 0000 0000 0000 0000 0000 0000
00000120: 0000 0000 0000 0000 0000 0000 0000 0000
00000130: 0000 0000 0000 0000 0000 0000 0000 0000
00000140: 0000 0000 0000 0000 0000 0000 0000 0000
00000150: 0000 0000 0000 0000 0000 0000 0000 0000
00000160: 0000 0000 0000 0000 0000 0000 0000 0000
00000170: 0000 0000 0000 0000 0000 0000 0000 0000
0.0 0.0 0.0 0.0 0.0 0.0 0.0 0.0
0.0 0.0 0.0 0.0 0.0 0.0 0.0 0.0
0.0 0.0 0.0 0.0 0.0 0.0 0.0 0.0
0.0 0.0 0.0 0.0 0.0 0.0 0.0 0.0
0.0 0.0 0.0 0.0 0.0 0.0 0.0 0.0
0.0 0.0 0.0 0.0 0.0 0.0 0.0 0.0
0.0 0.0 0.0 0.0 0.0 0.0 0.0 0.0
0.0 0.0 0.0 0.0 0.0 0.0 0.0 0.0
0.0 0.0 0.0 0.0 0.0 0.0 0.0 0.0
0.0 0.0 0.0 0.0 0.0 0.0 0.0 0.0
0.0 0.0 0.0 0.0 0.0 0.0 0.0 0.0
0.0 0.0 0.0 0.0 0.0 0.0 0.0 0.0

batchnorm.running_var f4 [96]
00000000: 0000 803f 0000 803f 0000 803f 0000 803f
00000010: 0000 803f 0000 803f 0000 803f 0000 803f
00000020: 0000 803f 0000 803f 0000 803f 0000 803f
00000030: 0000 803f 0000 803f 0000 803f 0000 803f
00000040: 0000 803f 0000 803f 0000 803f 0000 803f
00000050: 0000 803f 0000 803f 0000 803f 0000 803f
00000060: 0000 803f 0000 803f 0000 803f 0000 803f
00000070: 0000 803f 0000 803f 0000 803f 0000 803f
00000080: 0000 803f 0000 803f 0000 803f 0000 803f
00000090: 0000 803f 0000 803f 0000 803f 0000 803f
000000a0: 0000 803f 0000 803f 0000 803f 0000 803f
000000b0: 0000 803f 0000 803f 0000 803f 0000 803f
000000c0: 0000 803f 0000 803f 0000 803f 0000 803f
000000d0: 0000 803f 0000 803f 0000 803f 0000 803f
000000e0: 0000 803f 0000 803f 0000 803f 0000 803f
000000f0: 0000 803f 0000 803f 0000 803f 0000 803f
00000100: 0000 803f 0000 803f 0000 803f 0000 803f
00000110: 0000 803f 0000 803f 0000 803f 0000 803f
00000120: 0000 803f 0000 803f 0000 803f 0000 803f
00000130: 0000 803f 0000 803f 0000 803f 0000 803f
00000140: 0000 803f 0000 803f 0000 803f 0000 803f
00000150: 0000 803f 0000 803f 0000 803f 0000 803f
00000160: 0000 803f 0000 803f 0000 803f 0000 803f
00000170: 0000 803f 0000 803f 0000 803f 0000 803f
1.0 1.0 1.0 1.0 1.0 1.0 1.0 1.0
1.0 1.0 1.0 1.0 1.0 1.0 1.0 1.0
1.0 1.0 1.0 1.0 1.0 1.0 1.0 1.0
1.0 1.0 1.0 1.0 1.0 1.0 1.0 1.0
1.0 1.0 1.0 1.0 1.0 1.0 1.0 1.0
1.0 1.0 1.0 1.0 1.0 1.0 1.0 1.0
1.0 1.0 1.0 1.0 1.0 1.0 1.0 1.0
1.0 1.0 1.0 1.0 1.0 1.0 1.0 1.0
1.0 1.0 1.0 1.0 1.0 1.0 1.0 1.0
1.0 1.0 1.0 1.0 1.0 1.0 1.0 1.0
1.0 1.0 1.0 1.0 1.0 1.0 1.0 1.0
1.0 1.0 1.0 1.0 1.0 1.0 1.0 1.0

fc.weight f4 [32, 192]
00000000: 81b9 cc3c 3f84 823c 9df0 84bd 7711 49bc
00000010: 78a0 293c e693 91bd 0b61 9b3d f15a 10bd
00000020: bffa a1bd 5d70 87bd 1115 c43b 1fd7 aa3a
00000030: 0e90 16bc c524 993c 6a09 cf3c 3aff 3a3d
00000040: 92c6 44bd 5b32 8e3d 8b45 433d ae98 ecbc
00000050: 0073 ae3c 17bb 28bd b4d3 98bd 2789 79bc
00000060: f324 8fbd f53c c73c 1fad 94bd e2ec 7bbc
00000070: 9e65 46bd 5955 74bd 590d d2bc f6ba 9b3d
00000080: 7c3b 91bd f6f7 9dbd 7cfd c3bc c032 88bd
00000090: c965 b0bd 009c 4dbd 87bb 6d3d 312c babd
000000a0: 1f20 443d da4f 773d 5bb9 a5bd 92b4 093d
000000b0: d1fd 0f3d e037 323d d533 283d e9b6 8a3c
000000c0: 8bd8 de3b a035 84bd 2fbe fe3c 866b 9abd
000000d0: 4d69 383d f494 ab3b bc99 503d 5c8a a83d
000000e0: 6611 3dbb 558d 33bb 2b31 a4bd 4cf8 d4bb
000000f0: 08f6 a23d cfcb a83d cec4 0bbc 27b3 973c
00000100: 42e4 8b3d dbfa 2a3d d9cb d3ba 612e 94bd
00000110: a648 a23c 88e5 05bd 2978 6a3c 6d2d debc
00000120: 4534 943a 5f24 aabd 47c9 90bc ee64 ab3c
00000130: 631a bc3d 59fb 2c3d 592d 943c a562 9bbb
00000140: 9564 743d 4b95 ef3c 622a 863d ddbc 04bd
00000150: 73d7 b8bd 0809 a3bb 74df 43bd 9885 913b
00000160: 22d5 0bbb 162b 28bb 2ad8 1abd 0c22 7abd
00000170: 706e a33d 9989 efbb 0991 473d 068f fab9
00000180: 6c69 05bd c7a7 863d 2067 8b3c 4c1c 6c3b
00000190: 6cb5 80bd ccfb 543d daa6 6fbd 7a6f 453c
000001a0: 7b49 93bc 4ccd 563d c44b 82bc 2ede 3dba
000001b0: 3a64 3cbd d50a babc 1c33 503d c458 87bc
000001c0: 82e0 6abc 6772 9f3d 8748 ccbc cd47 e23c
000001d0: 7538 1327 6ba3 e92f e7db a83d 3e8f 2fbd
000001e0: 8e25 71bc 162c 073c 3b0a 1fbd 80bc 293c
000001f0: f83e 7cbd cb72 cf3b 3c49 833d e558 28bd
00000200: e3f6 43bc 7f8b 663d 3e3c 47bc acf5 a1b9
00000210: 0df2 9dbd 2106 b1bd 493b 9d3d 88e2 bcbb
00000220: 99ae 05bd fddb 8e3d dace 44b9 6691 5539
00000230: 4e9d 93bd 87c0 983d d808 14bd 73de 2d3d
00000240: 7eba 913d efa7 533d c3df d53c fb66 18bc
00000250: 07e3 3dbd 99b9 c53b 74c8 31bd e23d 49bd
00000260: 686d 053d 1bb5 de3c b3e4 bfbc e138 373d
00000270: ae39 ccbc ed0c 86bd 9e74 113d 9afd 213d
00000280: 57d8 7fbd f008 8c3d 1f06 86bc 4e70 f5bc
00000290: 4b50 773d 81ac bbbd 411d 803d eb01 4ebd
000002a0: b58e 703d ff54 8abc df8f 5f3c 6aa5 b9bd
000002b0: d85e bd3c 4019 8cbd 2d62 833d 62e1 713d
000002c0: f517 a6bd d66d 923d 6ba9 af3c 6178 083d
000002d0: 52d0 0d3c b9c5 b53d 13c7 7dbd 6135 b4bd
000002e0: 4d10 b43d 9a1d 923d 4244 f5bb d392 a7bc
000002f0: 2473 b1bb 6a9d 823d c1d0 4628 c9af 1338
00000300: e554 c6bd dc5e a1bd 5432 b4bd dc31 c8bd
00000310: bac6 bbbc 1e76 f2bc f784 74bc 1cd5 b33d
00000320: 802c 843d 5fea adbd 004f cabc 9889 18bb
00000330: bed3 e039 67b0 4b3d 649d 34bd e040 2d3d
00000340: 2bf1 1f3d d73a 84bd 2734 7d3c 57bd e83c
00000350: de39 e1bc 801b c1bc 3105 9ebc 2960 c53c
00000360: 41cd 9cbd bade 433d fa9b 5c3d d5ae 363d
00000370: c86c 33bd 0a21 51bb 8b71 67bd 738f 3d3d
00000380: 5882 0b3d 5cdc bf3c 5553 4abc e93f 8c3d
00000390: 493c 11bd e790 543d a367 b4bc a690 ba3b
000003a0: 8689 363d be7b 6dbd 002d 803d 12bc 8f3d
000003b0: 56ae 9e3d 2063 823c 7cb4 393d 513a 44bc
000003c0: 0627 823d e154 83bd 1b22 483d 25f1 b13d
000003d0: 3f71 8abd 6f76 6c3d 4ee4 c0bd 1784 1fbd
000003e0: 0486 7c3b 7d86 8c3b 8c54 b1bb e4b7 4b3d
000003f0: 49c8 f0bc 0e0a 1e3c bb99 923b abd1 5e3c
0.024990799 0.0159322 -0.06491206 -0.01227223 0.0103532 -0.071082875 0.07586869 -0.03524298
-0.07909154 -0.066132285 0.0059839566 0.0013034082 -0.009189619 0.01869429 0.025273044 0.04565356
-0.048040934 0.06943198 0.047673743 -0.028881397 0.02129507 -0.041194048 -0.07462254 -0.015230454
-0.069894694 0.024321059 -0.07259583 -0.0153763015 -0.048436753 -0.059651706 -0.02564113 0.07604019
-0.07091424 -0.077133104 -0.023924582 -0.06650305 -0.08613164 -0.0501976 0.058040168 -0.0909046
0.047882196 0.060378887 -0.080919944 0.03361947 0.035154168 0.043510318 0.041065056 0.016932921
0.0068007163 -0.06455541 0.031096546 -0.0754004 0.045022298 0.0052362625 0.050927863 0.08229515
-0.0028849482 -0.0027397473 -0.080171905 -0.006499326 0.07957083 0.082419984 -0.008530809 0.018518044
0.06830646 0.04174314 -0.0016158774 -0.072354086 0.019810032 -0.0326896 0.014310875 -0.02712127
0.0011307081 -0.083077185 -0.017674102 0.02092215 0.0918472 0.04223189 0.01808803 -0.004741984
0.059666235 0.029245993 0.06551053 -0.032406677 -0.09025469 -0.004975442 -0.047820523 0.0044409744
-0.0021336754 -0.0025660447 -0.037803806 -0.061067626 0.07980049 -0.007310104 0.0487223 -0.00047790277
-0.03257124 0.0657497 0.017016947 0.0036027608 -0.062846035 0.051997945 -0.05850873 0.012050504
-0.017979374 0.05244188 -0.015905268 -0.0007242885 -0.04599402 -0.022710243 0.05082999 -0.016521819
-0.014335753 0.077854924 -0.024936927 0.027622128 2.0430953e-15 4.2498569e-10 0.08245068 -0.042861216
-0.014718426 0.008250257 -0.038828116 0.010359883 -0.06158349 0.006330823 0.06410453 -0.0411004
-0.011960718 0.056285378 -0.012160359 -0.00030891353 -0.07712183 -0.08643747 0.07677323 -0.0057643093
-0.032637212 0.06975553 -0.00018769075 0.00020367428 -0.07207738 0.07458597 -0.036141247 0.042448472
0.07115649 0.051673826 0.026107674 -0.009301896 -0.04635909 0.006034088 -0.043404058 -0.04913128
0.03257504 0.027185967 -0.023424482 0.04473198 -0.024929848 -0.06545434 0.035511605 0.039548494
-0.062462177 0.06837642 -0.01636034 -0.029960778 0.060379308 -0.09163762 0.0625558 -0.050294798
0.058729846 -0.016886232 0.013645141 -0.09064753 0.023116514 -0.068407536 0.0641521 0.059052832
-0.08110038 0.07149856 0.02144309 0.033317927 0.008655624 0.08875603 -0.06195743 -0.08799244
0.087921716 0.07134552 -0.0074849436 -0.020455753 -0.005415337 0.063776806 1.1036474e-14 3.5211244e-05
-0.09684161 -0.07879421 -0.08798662 -0.09775135 -0.022921909 -0.029597338 -0.014924279 0.08780882
0.064538 -0.08491968 -0.024695873 -0.0023275372 0.0004288237 0.049728777 -0.044095412 0.042298198
0.039048355 -0.06456535 0.015454329 0.028410597 -0.027493414 -0.023572683 -0.019289585 0.024093704
-0.076563366 0.04781983 0.05385969 0.044600327 -0.043804914 -0.0031910562 -0.056504767 0.046279382
0.034059852 0.023420505 -0.0123489695 0.068481274 -0.035457883 0.051896002 -0.022022074 0.005693513
0.044564746 -0.057979338 0.06258583 0.070182934 0.07748096 0.015916407 0.04533814 -0.011976794
0.063550994 -0.06412674 0.04886065 0.08688573 -0.06759881 0.057730135 -0.09418546 -0.03894433
0.0038532028 0.004288493 -0.00541169 0.04973592 -0.029392378 0.009645952 0.0044738925 0.013599793

fc.bias f4 [32]
00000000: a4a7 ec3c 31b1 603d eed4 763d 43bf 88bd
00000010: c1ed 50bd c430 113d c686 613d f36f 62bc
00000020: 96ee 83bd ae06 39bd 1f79 4abd c202 873d
00000030: 6c16 82bc 503c f73b 6fcb 29bd 4b99 313d
00000040: 27d9 8a3d efc6 72bd b4a4 0abd 46e2 1f3d
00000050: 730f f1bc 7716 4ebd f2e0 443c 5fd1 9a3d
00000060: 4ce9 c6bc 2a95 7ebd fb42 84bd a530 093c
00000070: 2dd6 113d 531b 83bc b4da 31bd b07b 0bbd
0.028888531 0.054856483 0.06026166 -0.06677105 -0.05100799 0.035446897 0.05506017 -0.013820636
-0.06441991 -0.045172386 -0.049431916 0.06592323 -0.015879832 0.0075450316 -0.041453775 0.043359082
0.067797 -0.05927175 -0.03384848 0.03903415 -0.029426312 -0.050314393 0.012016522 0.075594656
-0.024281166 -0.062153973 -0.06458088 0.008373414 0.035604645 -0.01600424 -0.043421462 -0.034053504
