trained_nets/synt-rec pipeline/synt_net64.pth (torch, 800607 bytes, 4 tensors)

fc.weight f4 [3072, 64]
00000000: 4203 013c 024b 70bd 3a50 fc3b 742e 3b3c
00000010: 6543 493c 13b5 5fbc 1b60 743d 4179 64bd
00000020: c2fb 913d 8ca2 56bd d587 1f3d 92d1 963c
00000030: 0e77 9abd 587c a03d 4e27 4d3c c92e cfbc
00000040: d9df 863c 1ea1 a53c ebd9 943c ea7e 553c
00000050: 9291 6e3d 496d f1bc 778f f5bd fb78 d73c
00000060: ca71 b2bd 0453 0b3b 1e09 26bd 3dbc ce3d
00000070: 6611 02bd 5c48 48bb 9576 b03d 7f34 eb3c
00000080: 1e45 713d fc7a 15bc b78d b23d 9e89 913d
00000090: 6824 8b3b 4e5e 9abc 1333 b1bd 4f28 1c3c
000000a0: 84ef a63d d5f2 46bc 5559 0d3d 9873 0fbd
000000b0: 5f3b 093d 789c 84bd 43dc 64bd 868f 84bd
000000c0: a954 d9bc 3131 673c 1293 cebc 94e8 e0bc
000000d0: e0f2 373b 9ee4 233e 1be9 073d bbb9 02bc
000000e0: c30f c3bc 6f40 a4bc e1a2 87bd cbd3 69bd
000000f0: fcc3 32bd 190c 7dbc c64e 55bb 2309 9cbd
00000100: 3c47 8a3c 5877 a4bd 0f68 62bb 41a0 a4bb
00000110: 953e bd3c 3a5c 13bd 225b 4d3d 849e 56bd
00000120: a19a a23d 6fc5 49bd a543 213d 7ec8 043d
00000130: 158b 6cbd db8d 3e3d 4201 ca3c de5a 46bd
00000140: 7991 123d 7742 483d 1c12 4f3d f266 2f3c
00000150: 0fb4 4c3d f7fe 16bd f231 09be 3250 a93b
00000160: ecc4 88bd ed74 4fbc ad54 36bd 34cc 913d
00000170: 8761 05bd 7da4 e33b f426 753d 89e1 76bc
00000180: abcf f83c 6271 16bd 87d2 953d bbb4 1a3d
00000190: d0bb 2fbc c506 8ebc b4bc 49bd bb6d 80bc
000001a0: 23ce 823d bbe8 603c c768 8c3c 8ca2 0bbd
000001b0: d0b0 183d bdce a5bd 3e2f 85bd db84 54bd
000001c0: 5875 1ebd 1c90 ba3b 9d56 a6bc 4220 35bd
000001d0: 2d5f 29bd 400e e53d e180 8b3c 1322 56bc
000001e0: b741 0b3a 1255 b3bb 1c22 88bd 1c27 65bd
000001f0: b029 acbc 80c0 01bb d7ba 1c3c 43ca 5fbd
00000200: 3eb9 e5bb 8361 8dbd 216d 39bc 605a 6c3d
00000210: 6ceb e13c 0d51 50bb d116 913b bbf4 34bd
00000220: 919f cb3d fffb 04bd 4998 a53d 0e2a 7a3c
00000230: 4e32 abbd 1c3d 02bc ab2a 51bc 601f 07bd
00000240: e051 8a3d fe84 023c 09d1 33bc 4c49 453d
00000250: 6003 a8bc 9a2e 67bd bc84 d4bd bc83 783c
00000260: 7809 abbd 5704 b4bb 427a 12bd e36f 3e3d
00000270: 2f00 fbbc 2ac6 36bc 7eae 563d 0e46 15ba
00000280: 0733 f63b b91e b5bc 68dd 443d 72e3 643d
00000290: 492b d9bb 9051 fd3b cf99 4ebd de50 033d
000002a0: 4cbc 7a3d cb48 e03c 3801 de3c 859c ddbc
000002b0: 2d36 4dbc 3e88 b2bc 5cdb 9abd d70f 22bd
000002c0: 7a02 62bd 55cf 18bd 995a 0f3d 1da4 36bd
000002d0: e7eb 8fbd b8aa 0b3e b292 48bc 9dad adbc
000002e0: ab94 f1bc 73e8 0dbd 1e97 50bd c281 51bd
000002f0: 44eb 79bc d3dc 553d 24d8 b4bc 4fda bdbc
00000300: 2c76 ab3b 933d 61bd b035 8f3c edb6 873d
00000310: 0a27 dc3c 4584 ccbc 85ee d53c 3568 f5bc
00000320: 2c0c ae3d 17c6 71bd 41e2 583d 2648 c33c
00000330: dbdf b5bd 13ba 013d 0aef d0bb 7f22 a2bb
00000340: bc37 4f3d 1697 3f3d c6ed c93b b137 a63c
00000350: ce05 44bc 6089 05bd 4df0 babd d825 dabc
00000360: 8356 87bd 34ef 98bc 1c14 25bd 314a ca3d
00000370: 331a 82bc 1ba8 1d3c 3846 743d 9991 383c
00000380: f3e2 943b b518 84bc 76d6 963d 9e58 943d
00000390: 4d67 42bb 440a e03b 631b e6bc 9c34 2f3d
000003a0: 98e7 6e3d 19a1 debc 68e8 1b3b cffe 0ebd
000003b0: d88b 05ba d226 00bd 6f45 84bd e55a 4fbd
000003c0: 07ce 0dbd 46d6 87bc 9a9e b0ba d9af 2bbd
000003d0: 572a 3bbd 0f74 193e 63c7 903c 6387 98bc
000003e0: c663 04bd ef17 f7bc c8e3 eabc 090f e2bc
000003f0: d88e 0fbc 16c0 e63c 9630 0e3d 6145 6cbc
0.007874312 -0.058665283 0.0076999934 0.0114246495 0.0122841345 -0.013654011 0.059661966 -0.0557797
0.07128097 -0.05240111 0.0389479 0.018410478 -0.07542239 0.07836217 0.012521578 -0.025290864
0.01646416 0.020218428 0.018170318 0.013030747 0.058244295 -0.029471057 -0.11990254 0.026302805
-0.0871311 0.0021259198 -0.04053604 0.10094497 -0.031754874 -0.0030560708 0.08616368 0.028711556
0.058903806 -0.00912356 0.08718436 0.071063265 0.0042462833 -0.018843796 -0.0865232 0.009531095
0.08151153 -0.012142857 0.03450902 -0.03502235 0.033503886 -0.064751565 -0.05587412 -0.064726874
-0.026529627 0.014110849 -0.025216613 -0.027454652 0.0028068349 0.1600518 0.03318129 -0.007978852
-0.023811227 -0.020050256 -0.066228636 -0.057086747 -0.043643937 -0.015444779 -0.0032548173 -0.0761893
0.01687967 -0.080305755 -0.0034546887 -0.0050239866 0.02310113 -0.035976626 0.05013574 -0.052397266
0.079396494 -0.049260553 0.03937115 0.032417767 -0.057749826 0.046522003 0.024658803 -0.0484265
0.035783265 0.04889151 0.05055438 0.010705696 0.049976405 -0.036864247 -0.13397959 0.0051670307
-0.06678185 -0.012662155 -0.044514347 0.07119027 -0.032563712 0.0069470988 0.0598516 -0.01506842
0.030372461 -0.036729224 0.073155455 0.037770014 -0.01072593 -0.017337212 -0.049252227 -0.015677324
0.06386974 0.013727362 0.017139805 -0.034090564 0.037277997 -0.08096073 -0.06503151 -0.051884513
-0.038686126 0.0056934487 -0.020304972 -0.044220217 -0.041350532 0.111843586 0.017029228 -0.013069647
0.00053122215 -0.0054727877 -0.06647131 -0.0559455 -0.021015972 -0.0019798577 0.00956603 -0.05463625
-0.007010608 -0.069033645 -0.011317522 0.057703376 0.027578078 -0.0031786591 0.0044277688 -0.044178706
0.09942544 -0.032466885 0.08085687 0.015268816 -0.08359204 -0.00794914 -0.0127665205 -0.032988906
0.06753898 0.007966278 -0.010975131 0.048165604 -0.020509422 -0.056440927 -0.103768796 0.015168127
-0.083514154 -0.0054936814 -0.035761125 0.046493422 -0.030639736 -0.011155644 0.052412502 -0.0005694338
0.007513407 -0.022109376 0.048062712 0.05588097 -0.0066274744 0.0077306703 -0.050439652 0.032059543
0.06121473 0.02737846 0.02710019 -0.027052173 -0.012525124 -0.021793481 -0.07561371 -0.039565887
-0.055178143 -0.037307102 0.03499851 -0.044590104 -0.07027417 0.13639343 -0.012242006 -0.02120095
-0.029489836 -0.03464551 -0.050925367 -0.051149137 -0.015253846 0.052212548 -0.02207572 -0.023175387
0.005232593 -0.054990362 0.017481655 0.06626687 0.026874084 -0.024965415 0.026114712 -0.029956916
0.08498415 -0.059026804 0.052950148 0.023838114 -0.08880588 0.031671595 -0.006376152 -0.00494796
0.05059026 0.046774946 0.006162378 0.020290228 -0.011964275 -0.032601714 -0.09127865 -0.026629373
-0.06608298 -0.018668748 -0.04030238 0.09877432 -0.015881633 0.009622599 0.05963728 0.011265182
0.004543656 -0.016125062 0.07365124 0.07243465 -0.0029663623 0.0068371613 -0.02808923 0.04277478
0.058326334 -0.027176427 0.0023789648 -0.034910973 -0.00050943857 -0.031287022 -0.06458556 -0.050623793
-0.03462031 -0.016581666 -0.0013475001 -0.04191575 -0.045694675 0.14985679 0.0176732 -0.018619245
-0.032321714 -0.03016278 -0.028673068 -0.02759506 -0.008762084 0.028167766 0.034714304 -0.014420838

fc.bias f4 [3072]
00000000: 2973 8f3d 76f3 e93c df00 713d 67aa eb3c
00000010: ca27 3c39 facd 153d c826 d43c 2e20 793d
00000020: d2ec 1f3e a796 d03d 4cab aa3b 78a3 9a3d
00000030: d920 d9bc f584 c2bd 3e2b f3bb 3de2 723d
00000040: 6554 40bc 4f6e bd3d 890f 1f3d 557d ac3c
00000050: 232b 98bc e738 313d eef5 91bd a4e4 81bd
00000060: 5513 bdbb b93d 923b 1ffb 8e3d 86dc a33d
00000070: 8488 c73d 28ba 283e bd61 453e 3f15 213e
00000080: 3cf9 8f3d 84ef 513c 1d10 f43b d19f 63bd
00000090: 7185 163d cc71 a4bc 9fcd 19bd dcca dc3d
000000a0: 6e59 f93d 00a8 12bd 6e8b 0fbe 3bdc 1b3d
000000b0: 406d f1bd e8e3 2abe 9677 ddbd 4a42 4cbd
000000c0: f354 c63c bcc0 9ebd e81f d83b e47d a3bc
000000d0: 5865 bbbc a039 95bc 157b 14be 3fc8 3f3d
000000e0: 2908 82bd 157e a8bd 0c22 b8bd 4f3d f33d
000000f0: a5d3 553d c6ec ac3d 7142 f03d 1ab9 1d3e
00000100: 5052 303d 397e e5bd fdcd 933d 7ba5 253d
00000110: 1f90 c0bd d90b 44bd b5fa 12bc 20b0 bb3a
00000120: 52b5 7d3d e520 973d d037 dcbc 867e 61bd
00000130: 566f 35bc 3e39 b7bd e0cf 65bd 1f78 efbd
00000140: 16fe 98bd 854e 013e 8bac cc3d a09a cabb
00000150: 5bad 073c 277c 07bd 02b0 09be 39c8 24be
00000160: 544e e7bc 99f3 293c 21d2 913d 3389 283d
00000170: 1295 ae3b 89c1 2c3e d623 2f3e addf 2b3e
00000180: c580 043c c0f5 6fbd c7cd e2bd 21b6 00be
00000190: e10a 783c a41b 0a3d e3f2 b6bd 24d3 debc
000001a0: 8368 9c3d 6a0f 8cbd 6740 07be f93c 363d
000001b0: 6ace d2bd e1b4 8ebe 0c2e 18be cdc2 09bd
000001c0: abfc 3ebe 28c7 81bd 7cfa 0abd 4ac6 093d
000001d0: b36d 9cbd 8bc7 04be b366 3cbe 8fab 9bbd
000001e0: c89c cebd d313 5bbe 8fdc 15be ab29 c43d
000001f0: 264e 283c 39be f03c 6528 c23d 9fa4 d13d
00000200: da5e 54bc f17c a6bd c85d fdbc cbe0 abbd
00000210: 45ff e7bd 0174 8fbd 5b11 79bd ff52 22bd
00000220: cd60 83bd a9cb 0c3d 3f73 b7bd 6d6a acbd
00000230: c2d5 4ebe 79f6 63be b37a 44be fc7f b6bd
00000240: 27cc eebd 91a2 0bbe 830e 48bb 522e 06be
00000250: 4871 00be 5287 20be f144 54be f6a2 75be
00000260: fb86 3ebe 7033 f0bd 7a0d 13bd 14e3 eebc
00000270: 825e ffbd 135b 8a3d 1ca5 db3d 3b55 b53d
00000280: 4304 5dbc 6a03 11bd 1c1e 0a3c 448d ef3c
00000290: 171e 5fbd 9b14 58bd 0693 dcbb 1e44 363c
000002a0: e6c2 313d defe 22bc ece5 4bbe 2614 d5bd
000002b0: f637 1ebe 87c1 73be bdd6 17be c821 d7bd
000002c0: 9a31 1dbe 1a8a ce3c 6172 6b3c c6e9 d2bd
000002d0: b882 d9bd 5c96 3fbe d69f 86be 5e62 47be
000002e0: c252 bdbd cf3a 30be 7612 ddbd 9c9c 503d
000002f0: 0a5a 713d 2b3d 933d 0c1d eb3d a3f3 e93d
00000300: 6403 46bd e150 3dbe 2ebf 08be 2d3f 5abe
00000310: 293e 9dbd 0f69 ecbd 194c 19be a5f3 d1bd
00000320: ccc1 2ebd 3fa7 1abe dc8d 3ebe a3a4 cdbd
00000330: 7e39 75be 325f 90be 0e55 25be f0fb a4bd
00000340: c144 22be 28ae 00be 06ea 55bd 5037 44be
00000350: e1e8 62be 2d56 4fbe 5e8a 5ebe ae6f 8ebe
00000360: 7305 4fbe aa89 38be e43f 01be 1793 75bd
00000370: dc26 e0bd 4434 553c d8de de3d 4ec0 9a3d
00000380: 5e59 fbbc bb39 8bbd 05ae 56bd 3fcb 17bc
00000390: 83d7 82bd da60 acbd 980a 10be f91a c8bd
000003a0: f66a 39bd 3733 cabd 75d8 1bbe 9b1d 24be
000003b0: ab49 e5bd 5f38 82be e49e 19be 697e 39be
000003c0: 5b2b 63be 7530 53bc 5c28 1d3c 13d2 1fbe
000003d0: 09d4 ffbc c67e 0ebe 5489 90be 8801 22be
000003e0: f98a 8fbd fd0e 7fbe 8c0a 7cbe 7098 003d
000003f0: a14d 04bb a8ef 1ebd 0c1b 7d3d ff3c 883d
0.07004387 0.028558474 0.05883872 0.028767778 0.000179439 0.036573388 0.025897399 0.060821705
0.15617684 0.10184985 0.0052084085 0.075507104 -0.02650492 -0.09498016 -0.0074209264 0.05929779
-0.011738871 0.09249555 0.038833175 0.021055857 -0.018575257 0.043267157 -0.071269855 -0.06342438
-0.005770127 0.0044629243 0.06981491 0.08001046 0.09742835 0.16477263 0.19275565 0.15730761
0.070299596 0.012813453 0.00744821 -0.055572335 0.036748353 -0.020073794 -0.03754961 0.1078088
0.121752605 -0.03580475 -0.14018032 0.038051825 -0.11788416 -0.16688502 -0.10813825 -0.049867906
0.024210429 -0.07751605 0.0065956004 -0.01995749 -0.022875473 -0.018215954 -0.14500077 0.04682183
-0.06349213 -0.08227173 -0.08990869 0.11876928 0.052203793 0.084435984 0.11731423 0.15402642
0.04304725 -0.11205716 0.072170235 0.040441018 -0.09402489 -0.04786286 -0.008970906 0.0014319457
0.0619405 0.07379321 -0.026882082 -0.055052303 -0.011073908 -0.08946465 -0.05610645 -0.11692833
-0.07470338 0.12627609 0.099938475 -0.0061829835 0.008281077 -0.033077385 -0.13446048 -0.16092004
-0.028235592 0.01037302 0.07120157 0.04114647 0.005327829 0.16870703 0.17103514 0.16784544
0.008087342 -0.058583975 -0.11074405 -0.12569477 0.0151393125 0.033717766 -0.08933046 -0.02720029
0.076371215 -0.068388775 -0.13208161 0.04449174 -0.102932766 -0.27872375 -0.14861315 -0.033633042
-0.18651073 -0.06336814 -0.033930287 0.03363637 -0.07638111 -0.12966745 -0.18398552 -0.076010816
-0.100884974 -0.21394281 -0.14634918 0.0957826 0.010272538 0.02938758 0.09480361 0.10236477
-0.0129620675 -0.081292994 -0.030928507 -0.08392485 -0.11327986 -0.07004548 -0.060807567 -0.039629932
-0.06414948 0.034373913 -0.08957528 -0.084187366 -0.2019873 -0.2226199 -0.19187431 -0.0891113
-0.11660033 -0.13636233 -0.0030526228 -0.13103607 -0.12543213 -0.1567662 -0.20729424 -0.23987946
-0.18606178 -0.11728561 -0.035901524 -0.029161014 -0.12469198 0.06755652 0.107248515 0.08854147
-0.013489786 -0.035403647 0.00843003 0.029242165 -0.054472055 -0.052754026 -0.0067313937 0.011124639
0.04339876 -0.00994846 -0.19911927 -0.10404234 -0.15451035 -0.23804294 -0.1482801 -0.1050449
-0.15350953 0.025212336 0.014370532 -0.10298495 -0.10620636 -0.18709701 -0.2629382 -0.19471118
-0.092443004 -0.17209934 -0.10794537 0.050930604 0.05892376 0.07189401 0.114801496 0.11423423
-0.048343077 -0.18487884 -0.1335418 -0.21313162 -0.07677872 -0.11543476 -0.14970435 -0.1025155
-0.042665288 -0.15102862 -0.18608803 -0.100411676 -0.23947713 -0.28197628 -0.16145727 -0.08055866
-0.1584654 -0.12566435 -0.052225135 -0.19161725 -0.22159149 -0.20247717 -0.2173247 -0.2781958
-0.20216922 -0.18021265 -0.12622029 -0.05995473 -0.10944912 0.013012949 0.10882348 0.075562105
-0.030682262 -0.067981206 -0.05241205 -0.009264766 -0.06388762 -0.084169105 -0.14066541 -0.097707696
-0.04526802 -0.0987305 -0.1521929 -0.16026919 -0.11195692 -0.25433633 -0.15002018 -0.18114628
-0.22184508 -0.012889971 0.009592142 -0.1560748 -0.031229036 -0.13915548 -0.28229773 -0.15820897
-0.07008929 -0.24908061 -0.24613398 0.031395376 -0.0020187872 -0.038802773 0.061793372 0.06652259

conv.weight f4 [3, 3, 3, 3]
00000000: 9af3 fb3c ad4f dabd 6e25 0bbd 8ff9 f3bb
00000010: eaf8 c7bd 41ff aebd f2a8 363c a06b 5d3d
00000020: 8474 58bd c258 29be 15aa be3d e3e2 3f3c
00000030: 973d 87bd 3c75 ffbb 145e 4bbc aee3 fc3c
00000040: 0ce3 c33d 4bd1 cebd 5f00 233e c0fa c8bd
00000050: dab5 943d 650b d5bc c5e7 a83d 2aa6 cd3c
00000060: 8354 39be 22ed 51bd c5dd 00be f11a af3d
00000070: a485 b43d 3b39 733d b576 dabd b143 153e
00000080: 5b7d 84bd 200e 0539 0c73 993d c3f1 12bd
00000090: 3ced 5c3d 0e58 00be 5752 593c 3cb9 da3d
000000a0: ffa9 f53b 3dd8 1cbe 6021 3bbe 8a8f 183e
000000b0: 8cdf 673d e376 19be 4b3b 39be 7548 b13d
000000c0: 3eed fabd 8109 9a3c dd0c 02be 7361 5dbd
000000d0: ff5a 1abe 72ec 123d 532b da3b a805 983d
000000e0: e46d babb 27ac 083e 4c5c 273d b4a3 04bc
000000f0: 094b 3ebd 653f c93d 9f4b 3fb7 07a4 fa3d
00000100: 30b2 7e3d 7a50 143e 6b24 193e 6118 f13d
00000110: 83f7 843d eb83 ce3d d386 053e d2db ae3d
00000120: b383 83bc 38c7 02be 0743 693d 2d54 293e
00000130: 4603 883c 66e2 de3d 2231 a6bb 6be1 a8bd
00000140: 4847 283c
0.030755807 -0.10659728 -0.033971243 -0.007445521 -0.097642735 -0.085447796 0.011148678 0.054057717
-0.052845493 -0.16537765 0.09309784 0.011711809 -0.06603544 -0.007795958 -0.012412567 0.030870285
0.0956479 -0.10098513 0.1591811 -0.09813452 0.07261248 -0.02600641 0.082473315 0.025103647
-0.18098645 -0.051251538 -0.12584598 0.085500605 0.088145524 0.05938075 -0.10667173 0.14576603
-0.06469222 0.0001268913 0.074926466 -0.035875093 0.05393718 -0.1253359 0.01326426 0.10679862
0.0074970718 -0.15316863 -0.1827445 0.14898506 0.056609675 -0.14986758 -0.18089025 0.08656398
-0.122522816 0.01880336 -0.1270022 -0.054048013 -0.15073775 0.035870023 0.0066579967 0.07422954
-0.0056893695 0.13346921 0.040859506 -0.0080956705 -0.046458278 0.09826545 -1.1402094e-05 0.12238317
0.06218165 0.14483824 0.14955299 0.11772228 0.064925216 0.10083755 0.13039713 0.08538021
-0.01605401 -0.12771308 0.056948688 0.16536017 0.016603123 0.10883026 -0.005071775 -0.0824612
0.010270901

conv.bias f4 [3]
00000000: e8c7 963d 01c9 20be a39d 08be
0.07362348 -0.15701677 -0.13341384
