trained_nets/synt-rec pipeline/synt_net32.pth (torch, 407391 bytes, 4 tensors)

fc.weight f4 [3072, 32]
0	0xbc83140d	-0.016000772
1	0x3d10d41a	0.035358526
2	0x3e84c336	0.25930184
3	0xbd7443c8	-0.059634954
4	0x3cec2407	0.028825773
5	0xbd018de2	-0.03162945
6	0xbd583c72	-0.05279202
7	0xbd4c0131	-0.049805824
8	0xbcdc34fd	-0.026880736
9	0xbd7b8d0b	-0.061413806
10	0xbd7a2de3	-0.061078917
11	0xbde12d5f	-0.10994982
12	0xbdb449d2	-0.088031426
13	0xbc84ba33	-0.016202068
14	0xbdbe99c5	-0.09306673
15	0xbe25776c	-0.16158837
16	0xbdc60f50	-0.096708894
17	0x3da17528	0.07883674
18	0xbd9c016d	-0.076174594
19	0x3da93ba0	0.08263326
20	0x3e8340aa	0.25635272
21	0x3d81972b	0.06327661
22	0xbd387918	-0.04503736
23	0x3c220704	0.009889368
24	0xbb2c20b6	-0.0026264614
25	0xbe1d0a56	-0.15335974
26	0x3d50fdcd	0.051023293
27	0xbc845386	-0.016153108
28	0x3daeaf19	0.08529491
29	0x3c4917a6	0.012273705
30	0x3cf95274	0.030434825
31	0x3e2c70de	0.1683993
32	0xbd5b9809	-0.05361179
33	0xbd38a5f3	-0.045080137
34	0x3e562a25	0.20914514
35	0xbdadcdf4	-0.08486548
36	0x3d925c27	0.07146483
37	0xbd579c97	-0.05263957
38	0xbd49ae9b	-0.049238782
39	0x3d6fb931	0.05852622
40	0x3c00728b	0.007839809
41	0x3dc8b214	0.09799591
42	0x3d2ec537	0.042668547
43	0xbd840e32	-0.0644802
44	0xbe59e7ae	-0.21279785
45	0x3e0e5c1a	0.13902321
46	0xbe42740e	-0.18989584
47	0xbe47bac5	-0.1950484
48	0x3cfa671f	0.03056675
49	0xbd6119f5	-0.054956395
50	0xbbcd7893	-0.006270477
51	0xbe0feaa3	-0.1405435
52	0x3dd44171	0.103640445
53	0x3b90f961	0.0044242595
54	0xbd1036cb	-0.035208505
55	0x3e03ac55	0.12858708
56	0xbd7650ee	-0.060135774
57	0xbde49129	-0.111604996
58	0x3d42c53b	0.047551375
59	0x3c853c04	0.01626397
60	0x3e13fd56	0.14452109
61	0xbcb54473	-0.022127366
62	0x3df3552a	0.11881478
63	0x3dd330a7	0.10312014
64	0x3d8e41c7	0.0694614
65	0x3e07d9bf	0.13266657
66	0x3db84eb3	0.08999386
67	0x3b9ccf91	0.004785486
68	0x3e1d86da	0.15383473
69	0xba4a3fcc	-0.0007715195
70	0xbd823787	-0.06358247
71	0x3da17df1	0.078853495
72	0x3d1fa42d	0.03897493
73	0x3e4a778c	0.19772166
74	0x3de79c37	0.113090925
75	0xbc8779b9	-0.016537534
76	0xbe6a4069	-0.22876133
77	0x3db59dd5	0.08867995
78	0xbdf96054	-0.12176576
79	0xbdba7cf8	-0.09105867
80	0xbe07bcdc	-0.13255638
81	0xbd2931a7	-0.041307118
82	0xbe1bcdab	-0.15215175
83	0x3dac7423	0.08420589
84	0x3e7c1901	0.24618913
85	0x3d6151a8	0.055009514
86	0xbd3fa116	-0.046784483
87	0x3e1ef7d4	0.15524226
88	0xbc5d8378	-0.013520114
89	0xbe21e9e7	-0.15811883
90	0xbe112d81	-0.14177515
91	0xbdf31be4	-0.11870554
92	0x3dfc1a7f	0.12309741
93	0xbe295858	-0.16537607
94	0x3d6e3c45	0.058162946
95	0x3da9dae0	0.082937
96	0x3d9adaeb	0.075612865
97	0x3d7b8992	0.061410494
98	0x3dd7c60d	0.10535822
99	0xbdd6dd25	-0.10491399
100	0x3e063c69	0.13108982
101	0xbd0cdecb	-0.03439216
102	0x3d84d2b0	0.06485498
103	0xbd2f6bc4	-0.042827383
104	0x3d68d166	0.056840323
105	0x3dc1e466	0.09467392
106	0x3b393696	0.0028261296
107	0xbc3c81da	-0.011505568
108	0xbe02358e	-0.12715742
109	0x3e67bef3	0.22631435
110	0xbda39fa1	-0.07989431
111	0xbe0104c1	-0.1259947
112	0xbcec9031	-0.02887735
113	0xbd82ca04	-0.06386188
114	0xbe3f307b	-0.18670838
115	0xbdfd7d32	-0.12377395
116	0x3e1a4435	0.15065081
117	0x3e211dbb	0.15733998
118	0x3db04208	0.086063445
119	0x3dbf68d4	0.09346166
120	0xbcae143c	-0.021249883
121	0xbe2532f8	-0.16132724
122	0xbdb2e0cd	-0.087342836
123	0xbd07e138	-0.03317377
124	0x3e63cbde	0.22245738
125	0xbbaf20fa	-0.0053445073
126	0x3d3af530	0.045643985
127	0x3e00ff4d	0.1259739
128	0x3e2ad0da	0.16681233
129	0x3d57093b	0.052499037
130	0x3e400ed6	0.1875566
131	0xbe535590	-0.20638108
132	0x3d8d4d16	0.068994686
133	0x3dd95990	0.10612786
134	0x3d2483d1	0.040164772
135	0x3da2a90f	0.079424016
136	0x3df50c28	0.11965209
137	0x3e17e3ff	0.14833067
138	0x3d50a758	0.05094084
139	0xbcbfc7c0	-0.023410678
140	0xbe8429dc	-0.25813186
141	0x3e0b1f04	0.1358605
142	0x3d9e2a51	0.07722915
143	0xbc0c9649	-0.008580753
144	0x3c770bff	0.015078544
145	0xbd7443d4	-0.059635
146	0xbdce734b	-0.10080584
147	0xbdf75168	-0.12076074
148	0x3e5cd328	0.21564925
149	0x3cd33536	0.025782209
150	0x3d8833d5	0.06650511
151	0xbc9c4b5d	-0.019078905
152	0x3c8f7b4e	0.017514851
153	0xbddacd23	-0.10683658
154	0xbd518e90	-0.05116135
155	0xbdbb5790	-0.091475606
156	0x3d747fb6	0.059692107
157	0xbdcb9c51	-0.09941924
158	0x3e499c75	0.1968859
159	0xbaee081e	-0.0018160378
160	0xbd93c502	-0.07215311
161	0x3d1b4134	0.03790398
162	0x3bd8cf02	0.006616474
163	0xbcc29cbf	-0.023756383
164	0xbda2156f	-0.079142444
165	0x3e11a467	0.14222871
166	0x39c3eb28	0.00037368503
167	0x3d5217ee	0.051292352
168	0x3d742305	0.05960371
169	0x3d228c60	0.039684653
170	0xbc856dc4	-0.016287692
171	0xbd3760ee	-0.044770174
172	0xbe1e221a	-0.15442696
173	0xbc81427a	-0.015778769
174	0x3dc7b1e1	0.097507246
175	0x3da95c49	0.08269555
176	0x3cb008b9	0.021488534
177	0xbcae8b6b	-0.021306714
178	0xbd3193c1	-0.0433538
179	0x3d50aac3	0.0509441
180	0x3e620d4d	0.22075386
181	0xbc739617	-0.014867327
182	0x3dbd0ff3	0.09231558
183	0xbd31d0b6	-0.043411933
184	0xbd9e9ed0	-0.07745135
185	0xbe01b702	-0.12667468
186	0xbcbd145b	-0.023080995
187	0x3df74207	0.120731406
188	0x3db4a43f	0.0882039
189	0xbdd31fe2	-0.103088155
190	0x3da329aa	0.07966931
191	0x3d5d2375	0.053988893
192	0x3d6c6b0b	0.05771927
193	0x3d54013b	0.051758986
194	0x3d44991e	0.047997586
195	0xbe330743	-0.17483239
196	0x3d1f3811	0.03887183
197	0x3e1ef75c	0.15524048
198	0xbd9ff442	-0.0781026
199	0x3e02ba04	0.12766272
200	0x3aed6c11	0.0018113871
201	0x3cd16ae2	0.025563661
202	0xbdedd042	-0.11611988
203	0xbdc5d99e	-0.09660648
204	0xbd89048b	-0.0669032
205	0xbd1c2c72	-0.038128324
206	0x3ce5beba	0.028045047
207	0x3d53698c	0.05161433
208	0x3ca7fbc5	0.020505795
209	0xbd58c3f3	-0.052921247
210	0x3cc21d8a	0.023695726
211	0x3da1ef29	0.07906944
212	0x3dd5791a	0.10423489
213	0xbd027560	-0.03185022
214	0xbdbc9fe2	-0.09210183
215	0xbd28010a	-0.041016616
216	0xbd875186	-0.06607346
217	0xbd18da6b	-0.037317675
218	0xbdd86f0a	-0.10568054
219	0x3dbbe675	0.091748156
220	0x3de70962	0.112810865
221	0xbe247401	-0.16059877
222	0x3dcb9abf	0.09941625
223	0x3c7cba66	0.0154253
224	0xbc706e38	-0.014674716
225	0x3d85d3ef	0.06534564
226	0x3dbdff29	0.092771836
227	0xbe4161e9	-0.18885006
228	0x3d908db8	0.07058281
229	0x3e0f8a25	0.14017542
230	0xbddff663	-0.109356664
231	0x3e09ae5b	0.13445418
232	0x3d896ddb	0.067104064
233	0x3dd21038	0.10257
234	0xbe33a2f5	-0.17542632
235	0xbe10aa8b	-0.14127557
236	0x3ca95f72	0.020675395
237	0x3dcd8cfa	0.10036655
238	0xbce5a9e6	-0.028035115
239	0x3dc6534e	0.09683858
240	0x3ca6d04f	0.020363001
241	0x3d0b36bb	0.033987742
242	0x3d39a991	0.045327727
243	0x3e0d14d2	0.13777474
244	0xbbfc7a45	-0.0077050054
245	0x3d78b40d	0.060718585
246	0x3dd154f5	0.102212824
247	0xbe04c7fd	-0.12966914
248	0xbd8e129a	-0.06937142
249	0xbdeccc45	-0.11562399
250	0xbdd027bd	-0.101638295
251	0x3e12b61b	0.1432728
252	0xbd81a474	-0.06330195
253	0xbd36f587	-0.044667747
254	0x3e3edfd1	0.18640067
255	0x3cab04e1	0.02087635

fc.bias f4 [3072]
0	0x3e156758	0.14590204
1	0xbd22a11b	-0.039704423
2	0x3dfa84c5	0.12232355
3	0x3e1490f0	0.14508414
4	0x3d23b73a	0.03996966
5	0xbda563f5	-0.08075706
6	0xbbfc16fc	-0.0076931696
7	0xbd8dad1a	-0.06917782
8	0x3e3e7e8a	0.18602958
9	0x3ccf88b0	0.025333732
10	0x3cbfa9a4	0.02339632
11	0x3d0603fb	0.03271864
12	0xbd8d7b00	-0.06908226
13	0xbc8e8127	-0.017395569
14	0x3d7929d4	0.060830906
15	0xbd83c2ad	-0.06433616
16	0x3cd8f80f	0.026485471
17	0x3d56de6a	0.052458204
18	0x3db181e2	0.08667351
19	0x3e0199ba	0.12656298
20	0x3db9f0c3	0.09079125
21	0x3d2ed943	0.042687666
22	0xbd2f006e	-0.04272502
23	0x3e0f9ae8	0.14023936
24	0x3e101fbc	0.14074606
25	0x3e1515c2	0.14559081
26	0xbd0ed825	-0.0348741
27	0x3d88ab07	0.06673246
28	0x3d63b81e	0.05559551
29	0x3d2383db	0.03992067
30	0xbd375e27	-0.044767525
31	0xbd7eb4b7	-0.06218406
32	0xbc618a58	-0.013765894
33	0x3dc9cf42	0.098539844
34	0xbd12efc8	-0.035873204
35	0x3e170622	0.14748433
36	0x3e0257c5	0.12728794
37	0x3e2bf31b	0.16791956
38	0x3d92dfba	0.07171579
39	0x3d8258ec	0.06364617
40	0xbd61bea9	-0.05511347
41	0xbceaae0a	-0.028647441
42	0x3d9ee6bd	0.077588536
43	0x3b570502	0.0032809381
44	0xbdb2ab8d	-0.08724127
45	0x3e0e1c94	0.13878089
46	0x3d87a77f	0.06623744
47	0xbd0eb6a1	-0.034842137
48	0xbcede3e8	-0.029039338
49	0x3cdad508	0.02671291
50	0x3dba6675	0.091015734
51	0xbbebfb09	-0.0072015566
52	0xbd799d97	-0.060941305
53	0xbd3a2b3c	-0.045451388
54	0x3d79ce64	0.060987845
55	0x3df69deb	0.12041839
56	0x3bd6e830	0.0065584406
57	0xbddc48f8	-0.10756105
58	0xbb228a0b	-0.0024801518
59	0xbd97ab6b	-0.07405742
60	0x3d3583fb	0.04431532
61	0x3cbd1850	0.023082882
62	0xbd11e4b3	-0.035618495
63	0x3c3162b6	0.010826757
64	0xbb0f44a6	-0.0021860986
65	0x3e20c193	0.15698843
66	0xbda3dd38	-0.080011785
67	0x3cc74a4a	0.024327416
68	0x3df8c099	0.1214611
69	0xbda114be	-0.078652844
70	0x3d3ade08	0.0456219
71	0x3dbd43a2	0.092414156
72	0x3e189d46	0.14903745
73	0xbdbe534d	-0.09293232
74	0x3cc4dade	0.024030145
75	0x3db27e24	0.08715466
76	0x3d49c9a8	0.04926458
77	0xbd5a2334	-0.05325623
78	0xbd9d81dd	-0.07690785
79	0x3df2aa02	0.11848833
80	0xba93abdf	-0.0011266432
81	0x3d6559a0	0.055993676
82	0x3dbc87f5	0.09205619
83	0x3d99c2cf	0.0750786
84	0xbd2ca0bf	-0.042145487
85	0x3e2270a0	0.15863276
86	0x3e02d1b4	0.12775308
87	0xba0ca868	-0.00053656707
88	0x3d5f0955	0.05445226
89	0x3ddfa4b4	0.109200865
90	0x3d1d637e	0.03842496
91	0x3d85a4d9	0.06525583
92	0xbdf97211	-0.121799596
93	0xbe1c017d	-0.15234943
94	0x3cfd56f8	0.030925259
95	0xbccf0462	-0.025270645
96	0xbda330bb	-0.07968279
97	0xbdc30e05	-0.095241584
98	0x3e21be10	0.1579516
99	0xbd863099	-0.06552238
100	0xbc509177	-0.012729994
101	0x3d94216b	0.072329365
102	0x3c541f33	0.012946892
103	0xbdab8102	-0.08374216
104	0x3d9d8539	0.07691426
105	0x3d2a6254	0.04159768
106	0xbd360ace	-0.044443898
107	0x3db7659e	0.08954929
108	0xbdac70d8	-0.08419961
109	0xbde12b9a	-0.109946445
110	0xbdeb2c64	-0.11483076
111	0xbdfe447e	-0.124154076
112	0xbe0cad13	-0.13737898
113	0xbcbb6677	-0.022876007
114	0xbd8f7f95	-0.07006756
115	0xbdf0f113	-0.11764731
116	0xbd14a684	-0.036291614
117	0xbdd7da9c	-0.10539743
118	0xbca7a9ce	-0.020466711
119	0xbd8fcfbf	-0.07022046
120	0x3da67248	0.08127266
121	0xbd89507f	-0.067048065
122	0xbdc0dbf4	-0.09416953
123	0xbcf03aa3	-0.029324835
124	0xbdef26bb	-0.11677309
125	0xbd87a597	-0.06623381
126	0x3cc3a46f	0.023882119
127	0xba92033a	-0.0011139878
128	0x3d9caae7	0.076497845
129	0x3c9a18ce	0.018810656
130	0x3e09461b	0.1340565
131	0x3a419f86	0.00073861366
132	0xbc79882a	-0.015230218
133	0xbdb8dfc2	-0.090270534
134	0x3dc9cbdd	0.09853337
135	0xbe05d758	-0.13070428
136	0x3ce8b723	0.028407639
137	0xbd02af86	-0.031905673
138	0xbe0aee39	-0.13567437
139	0x3d6e48eb	0.05817501
140	0xbd91aee7	-0.07113438
141	0x3d29c16e	0.041444235
142	0xbe06fc4b	-0.1318218
143	0xbd798816	-0.060920797
144	0x3ddbdbc9	0.1073528
145	0x3dcc324f	0.09970533
146	0x3de39d78	0.11114019
147	0x3d85ad58	0.06527203
148	0x3e01093e	0.12601182
149	0x3e09cb9a	0.13456574
150	0x3e144580	0.14479637
151	0x3d96f568	0.07371026
152	0x3d8fb598	0.07017058
153	0x3c0a8ab9	0.008455926
154	0x3cc094a2	0.023508374
155	0xbda3d30e	-0.0799924
156	0xbccb617b	-0.024826756
157	0x3cecf179	0.028923737
158	0xbe1bc63c	-0.15212339
159	0x3bc66ba5	0.0060553127
160	0xbd487b51	-0.04894573
161	0x3d5de456	0.054172836
162	0xbd8fe2bf	-0.0702567
163	0xbdcb77b2	-0.099349394
164	0xbd11d1e5	-0.03560056
165	0x3dc653af	0.0968393
166	0xbdd7f94b	-0.10545596
167	0x3dee5446	0.11637168
168	0x3c42b649	0.0118842805
169	0xbd8d0c63	-0.06887128
170	0xbe116fa9	-0.14202751
171	0x3d1ca2ab	0.03824107
172	0x3ce51220	0.027962744
173	0xbe2b707d	-0.1674213
174	0xbbbf3c7b	-0.0058360673
175	0xbd2765f8	-0.04086873
176	0xbe0c5779	-0.13705243
177	0x3d4e21f0	0.050325334
178	0xbcc9b239	-0.024621116
179	0xbd91e7b1	-0.0712427
180	0x3db218fd	0.086961724
181	0x3d68443d	0.056705702
182	0xbd1fdda9	-0.03902975
183	0x3d875759	0.06608457
184	0x3e22a086	0.15881547
185	0x3de4e61f	0.111767046
186	0xbde5aa6d	-0.11214147
187	0x3c34b17b	0.011028643
188	0x3ce65b81	0.028119804
189	0xbda8d37b	-0.08243462
190	0xbde86b25	-0.11348561
191	0xbdb4ac56	-0.08821933
192	0xbdb88c85	-0.09011177
193	0x3dd9e420	0.106392145
194	0x3c49e9fe	0.0123238545
195	0x3db161ec	0.08661255
196	0xbd38e091	-0.04513604
197	0xbe2fea3a	-0.17179194
198	0x3d501f38	0.050811023
199	0xbcff5da5	-0.031172583
200	0xbde9ef86	-0.114226386
201	0x3d8c9e68	0.06866151
202	0xbd684065	-0.056702036
203	0x3d787cd5	0.060665924
204	0xbe0c1a7a	-0.13681975
205	0xbdcda3e8	-0.10041028
206	0xbdb77d9a	-0.089595035
207	0x3d493522	0.049122937
208	0x3dc871fc	0.09787366
209	0x3da796ea	0.081830814
210	0xbdc278cb	-0.09495696
211	0x3dce6973	0.100787066
212	0x3d26b944	0.040704027
213	0x3e00e5d0	0.12587667
214	0x3de15811	0.110031255
215	0xbd3820bb	-0.04495309
216	0x3e1424d5	0.14467175
217	0x3db78cd1	0.089624055
218	0xbd6aa56a	-0.057286657
219	0xbc62190c	-0.013799917
220	0x3c27e80e	0.010248197
221	0xbc8854da	-0.016642023
222	0xbd687b97	-0.05675849
223	0xbd78b495	-0.06071909
224	0x3d6eec52	0.05833084
225	0x3e07fe81	0.1328068
226	0xbaf40062	-0.0018615837
227	0xbdef5365	-0.11685828
228	0x3dda65e4	0.10663965
229	0x3de641a4	0.11242989
230	0x3cf7a808	0.03023149
231	0x3d90cab2	0.07069911
232	0xbd428000	-0.04748535
233	0x3d89546f	0.067055576
234	0xbdaa8ab1	-0.083272345
235	0xbc8c2faf	-0.017112581
236	0x3d48dc0f	0.04903799
237	0xbdaa404f	-0.08313047
238	0x3dd9e2b3	0.106389426
239	0x3d363af4	0.044489816
240	0x3d4f3a71	0.050592843
241	0x3da8cfad	0.08242736
242	0xbc1c1629	-0.009526768
243	0xbe0927d4	-0.133941
244	0x3e251ad9	0.16123523
245	0x3dc8b651	0.09800399
246	0xbc72ea5b	-0.0148263825
247	0xbd66e9ba	-0.056375243
248	0x3d88ba2c	0.066761345
249	0xbd3abb9a	-0.045589067
250	0xbd0d1c2f	-0.034450706
251	0xbd8fc7fc	-0.07020566
252	0x3c00f8ed	0.0078718485
253	0xbdc93edd	-0.09826443
254	0xbc741252	-0.014896946
255	0xbd8c1fbb	-0.068419896

conv.weight f4 [3, 3, 3, 3]
0	0xbbe08dce	-0.006852842
1	0xbcdcd288	-0.026955858
2	0xbdf183c1	-0.11792708
3	0x3e0c2b22	0.13688329
4	0xbdb556a1	-0.08854414
5	0xbe31d75d	-0.17367311
6	0xbe0b81e5	-0.1362377
7	0xbc764ebc	-0.01503342
8	0xbd970938	-0.07374805
9	0x3c49b6b1	0.012311623
10	0xbc6763c1	-0.014122904
11	0x3deaa818	0.114578426
12	0x3dcb2d04	0.099206954
13	0x3e38315f	0.17987584
14	0x3de726a6	0.112866685
15	0xbb29a1fa	-0.00258839
16	0x3caae7a7	0.020862414
17	0xbd778bf6	-0.06043621
18	0x3e0a18b1	0.13485982
19	0x3e401de5	0.18761404
20	0x3dce130e	0.10062228
21	0x3d3e1642	0.046407945
22	0x3e16a88d	0.14712735
23	0x3d8fda03	0.07024004
24	0xbdf3d4e9	-0.11905844
25	0xbe2976ff	-0.165493
26	0xbd948b99	-0.07253189
27	0xbe02ea62	-0.12784722
28	0x3d545f83	0.0518489
29	0x3c9fb9c6	0.019497763
30	0x3ce6fd6b	0.028197011
31	0xbdd2880c	-0.10279855
32	0xbe13cec3	-0.14434342
33	0x3ddaa380	0.106757164
34	0xbe19fdb5	-0.15038188
35	0x3defb126	0.1170371
36	0x3db049c9	0.086078234
37	0xbd96b605	-0.07358936
38	0x3e1f07a6	0.15530261
39	0x3ce9e0dc	0.028549604
40	0x3c1dccb8	0.009631328
41	0xbdcd756a	-0.100321606
42	0x3e2d6f11	0.169369
43	0x3d4a420c	0.049379393
44	0x3c8f6acf	0.017506985
45	0xbda2ee18	-0.07955569
46	0x3e30bbc1	0.17259122
47	0x3c01bc44	0.007918421
48	0x3c80bcd6	0.015715044
49	0xbe259db6	-0.16173443
50	0x3d30c712	0.0431586
51	0x3e0f9836	0.14022908
52	0xbc3e092b	-0.0115988655
53	0xbe36ed74	-0.17864019
54	0xbd02028f	-0.03174072
55	0x3e1dc2bc	0.15406317
56	0xbe258203	-0.16162877
57	0x3d84fd37	0.064936094
58	0xbe005186	-0.12531099
59	0x3e30a877	0.17251764
60	0xbd3c10bc	-0.045914397
61	0xbdb611c4	-0.08890107
62	0xbe42a1af	-0.1900699
63	0x3da7a92e	0.08186565
64	0xbce5a4b1	-0.028032633
65	0x3cd1e02b	0.025619587
66	0x3e3f3116	0.18671069
67	0x3e41aa9a	0.18912736
68	0xbdb2fbff	-0.08739471
69	0xbdb78cc2	-0.08962394
70	0x3e30cab4	0.17264825
71	0x3e25894a	0.16165653
72	0x3e2d5b77	0.16929422
73	0xbda7f125	-0.082002915
74	0xbdd01c21	-0.10161615
75	0xbd5285b3	-0.051397037
76	0xbe22fb30	-0.15916133
77	0x3e3e57be	0.18588158
78	0x3db2dd0c	0.087335676
79	0xbe2cd5ac	-0.16878384
80	0x3ca0c0ce	0.019623186

conv.bias f4 [3]
0	0x3e1a51f3	0.15070324
1	0x3d069cb1	0.032864276
2	0x3bf18ddf	0.0073716487
