trained_nets/synt-rend-rec/synt_net.pth (torch, 407391 bytes, 4 tensors)

fc.weight f4 [3072, 32]
-0.0021108668 0.31612176 -0.1101549 -0.006109026 -0.076191254 -0.05744306 0.13265927 -0.02479146
0.22122937 0.09489085 -0.22284327 0.051706 0.2597224 0.6153026 0.033707775 0.14786297
0.04580123 -0.15321939 0.13570963 -0.29709163 -0.029985014 -0.29907936 0.0868765 0.18280123
0.13278997 -0.013023293 0.17830025 0.2176669 0.11252783 0.10354906 0.085130416 0.08347838
-0.0075730197 0.3054119 -0.11552234 -0.011967881 -0.06999967 -0.046706494 0.15894626 -0.014834602
0.25261325 0.101678 -0.20168373 0.060721442 0.25523263 0.60399485 0.0034931186 0.13428117
0.037090253 -0.16476473 0.13423349 -0.24298386 -0.025589574 -0.23991989 0.08231408 0.15240532
0.10744444 -0.032239076 0.21139468 0.23661086 0.116748646 0.09831423 0.070901565 0.089479774
-0.017576057 0.28679603 -0.096564606 -0.03314168 -0.053790472 -0.03971074 0.16885635 0.0025307264
0.295176 0.09759867 -0.18897177 0.08043521 0.24289085 0.5793059 -0.032501493 0.11224091
0.02823204 -0.16985671 0.11592922 -0.17558382 -0.017740749 -0.18301052 0.076122485 0.13193233
0.09661801 -0.037141684 0.24189767 0.2656522 0.10951982 0.081470884 0.060954947 0.1055733
-0.050493535 0.25025153 -0.05249219 -0.039235875 -0.029900167 -0.015452516 0.18808018 0.034464817
0.32709014 0.104220055 -0.17214856 0.11682523 0.22832139 0.52802575 -0.07676715 0.093926944
0.0050331894 -0.19012065 0.079398386 -0.103050835 -0.014618383 -0.093636066 0.05003371 0.11863433
0.08705545 -0.032265518 0.244821 0.30771953 0.07540984 0.059498057 0.08925338 0.12136404
-0.077840835 0.19054878 -0.0075704223 -0.054749124 0.023290414 0.009519046 0.20565341 0.07683004
0.35767922 0.09021065 -0.14135009 0.15958929 0.20203052 0.43710542 -0.12246792 0.048127547
-0.016174082 -0.1883436 0.0038687105 -0.012889165 -0.017166417 0.018325364 0.020977719 0.08029991
0.06356786 -0.031983614 0.24324295 0.33933017 0.051828947 0.030507538 0.11954594 0.1450165
-0.097284146 0.10440601 0.01997689 -0.072416514 0.06979129 0.04001735 0.21494175 0.098685324
0.36894676 0.076669 -0.10915779 0.19361958 0.17051086 0.34982494 -0.1514669 -0.0047213556
-0.030785272 -0.17523901 -0.06119969 0.08532288 -0.035118926 0.12679689 -0.01601113 0.043282144
0.035798363 -0.024556432 0.22852588 0.3520618 0.03865887 -0.00088278763 0.12176993 0.15602894
-0.08032428 0.033637103 0.03327928 -0.085638545 0.09824743 0.050474778 0.20129955 0.13097486
0.3800478 0.04598654 -0.09057157 0.20900555 0.13118018 0.25099003 -0.124531895 -0.0484037
-0.050614774 -0.16142616 -0.1223101 0.1857989 -0.043992206 0.24797894 -0.043122523 0.020111967
0.0027277267 -0.031099696 0.22009306 0.33883923 0.017996114 -0.022181593 0.12868495 0.15316865
-0.035514936 -0.024195867 -0.0006946936 -0.09576727 0.11291733 0.057006124 0.1876539 0.15679966
0.36596867 0.009117838 -0.09116034 0.21375157 0.088264525 0.16137816 -0.0824475 -0.087473236
-0.057766847 -0.15216348 -0.16054116 0.2781291 -0.03932827 0.37289178 -0.047334485 -0.015644422
-0.03289547 -0.04004639 0.2226572 0.3155783 -0.015249616 -0.02455772 0.09133858 0.13726005
00000000: 7856 0abb b6da a13e e498 e1bd 392e c8bb
00000010: 290a 9cbd 6a49 6bbd d5d7 073e 7617 cbbc
00000020: f489 623e 2256 c23d 0731 64be acc9 533d
00000030: 56fa 843e 7984 1d3f 2a11 0a3d 6469 173e
00000040: 129a 3b3d 8be5 1cbe 77f7 0a3e 651c 98be
00000050: 22a3 f5bc ee20 99be 4eec b13d 3f30 3b3e
00000060: 18fa 073e a65f 55bc 5794 363e 12e4 5e3e
00000070: fe74 e63d 8811 d43d db58 ae3d b7f6 aa3d
00000080: 1827 f8bb f35e 9c3e fa96 ecbd ee14 44bc
00000090: fd5b 8fbd 4f4f 3fbd cfc2 223e d50c 73bc
000000a0: 8656 813e 8e3c d03d 2e86 4ebe 0cb7 783d
000000b0: daad 823e 689f 1a3f ceec 643b 0181 093e
000000c0: f3eb 173d 16b8 28be 8174 093e c3d0 78be
000000d0: 3aa1 d1bc 8fad 75be 4994 a83d 2410 1c3e
000000e0: d50b dc3d 1f0d 04bd d977 583e 1e4a 723e
000000f0: ea19 ef3d f958 c93d d734 913d 2c41 b73d
00000100: aafb 8fbc eed6 923e aac3 c5bd 92bf 07bd
00000110: 6653 5cbd bba7 22bd aee8 2c3e 8bda 253b
00000120: 4f21 973e d0e1 c73d d181 41be 37bb a43d
00000130: 61b8 783e 644d 143f 4920 05bd 90de e53d
00000140: e146 e73c ebee 2dbe 4d6c ed3d 3fcc 33be
00000150: 0c55 91bc 1c67 3bbe 1be6 9b3d 4519 073e
00000160: aadf c53d e121 18bd 06b4 773e 9103 883e
00000170: ed4b e03d 35da a63d e5ab 793d d036 d83d
00000180: 4fd2 4ebd f820 803e 0d02 57bd ccb5 20bd
00000190: 32f1 f4bc 8d2c 7dbc 1798 403e fb2a 0d3d
000001a0: 5c78 a73e 5371 d53d b647 30be 1142 ef3d
000001b0: 15cd 693e b22c 073f 1838 9dbd c55c c03d
000001c0: 74ed a43b fdae 42be 9f9b a23d 510c d3bd
000001d0: f181 6fbc 44c4 bfbd 26f0 4c3d 8ef6 f23d
000001e0: 214a b23d d928 04bd 5bb2 7a3e 6a8d 9d3e
000001f0: 7970 9a3d 3cb4 733d 7aca b63d b68d f83d
00000200: 046b 9fbd 381f 433e 4e11 f8bb 9e40 60bd
00000210: 8acb be3c c6f5 1b3c cf96 523e 1159 9d3d
00000220: bb21 b73e 5cc0 b83d 14be 10be 606b 233e
00000230: 17e1 4e3e 48cc df3e 76d0 fabd 6421 453d
00000240: 827f 84bc 25dd 40be 318a 7d3b 142d 53bc
00000250: 96a0 8cbc 131f 963c 77d9 ab3c 4774 a43d
00000260: de2f 823d 4001 03bd ae14 793e afbc ad3e
00000270: 974a 543d f2ea f93c 80d4 f43d 357f 143e
00000280: e93c c7bd d1d2 d53d 93a6 a33c 1c4f 94bd
00000290: bcee 8e3d 3ce9 233d b119 5c3e 881b ca3d
000002a0: 97e6 bc3e a304 9d3d 1f8e dfbd 3644 463e
000002b0: 669a 2e3e 411c b33e 241a 1bbe 9ab5 9abb
000002c0: 6531 fcbc db71 33be 87ac 7abd c3bd ae3d
000002d0: ddd8 0fbd 0bd7 013e c629 83bc 9e48 313d
000002e0: 4ea1 123d 922a c9bc b002 6a3e 7241 b43e
000002f0: c358 1e3d e06a 67ba 8362 f93d 0dc6 1f3e
00000300: 0e81 a4bd 0fc7 093d db4f 083d 4363 afbd
00000310: f335 c93d a4be 4e3d 7821 4e3e 461e 063e
00000320: a095 c23e 625c 3c3d 967d b9bd 8d05 563e
00000330: 1954 063e c481 803e 940a ffbd f542 46bd
00000340: 7051 4fbd e64c 25be b87d fabd 1142 3e3e
00000350: 2c31 34bd 31ee 7d3e 3ea1 30bd dac1 a43c
00000360: a9c3 323b cac4 febc 1360 613e 567c ad3e
00000370: 966c 933c 2cb6 b5bc fdc5 033e 3ed8 1c3e
00000380: 1c78 11bd 6936 c6bc 191c 36ba a121 c4bd
00000390: 3341 e73d 417f 693d 5828 403e 1790 203e
000003a0: 3f60 bb3e fc62 153c 46b2 babd b1e1 5a3e
000003b0: 08c4 b43d 5140 253e 3cda a8bd 2b25 b3bd
000003c0: ee9c 6cbd bed0 1bbe e764 24be f066 8e3e
000003d0: ae16 21bd aceb be3e cee1 41bd bb28 80bc
000003e0: 66bd 06bd af07 24bd 4000 643e 7b93 a13e
000003f0: 86d9 79bc 462d c9bc b90f bb3d e68d 0c3e

fc.bias f4 [3072]
0.2290284 0.17388695 0.1100495 0.006105048 -0.09427542 -0.21218447 -0.31302375 -0.36725205
-0.39945874 -0.3785955 -0.29489467 -0.15233068 0.026506012 0.20374073 0.32263863 0.3692954
0.34983388 0.25687587 0.123904295 0.006934598 -0.09983289 -0.19104038 -0.25801712 -0.30934185
-0.34803548 -0.34064084 -0.28646156 -0.18024069 -0.012811686 0.16785075 0.28375986 0.366904
0.23386817 0.18126126 0.09377332 -0.021089913 -0.12966833 -0.25144935 -0.36466455 -0.43867555
-0.47394368 -0.44293255 -0.3396977 -0.20821607 -0.032723635 0.15512054 0.30632448 0.35681388
0.3306011 0.22781327 0.08304481 -0.034534656 -0.1504712 -0.26132712 -0.33439603 -0.40418956
-0.45383722 -0.44674605 -0.3842308 -0.26689798 -0.07641137 0.10866143 0.23799035 0.32712144
0.18898012 0.13182123 0.03359611 -0.083505966 -0.20552734 -0.34193552 -0.45154548 -0.5264876
-0.5545359 -0.5339372 -0.42564225 -0.28863692 -0.09655244 0.11642404 0.25934547 0.30438438
0.27607927 0.17643972 0.036576588 -0.09660565 -0.2249321 -0.35551855 -0.4499667 -0.5119997
-0.563281 -0.5638022 -0.50244373 -0.3600474 -0.16762486 0.027019314 0.17111875 0.25721237
0.13274351 0.064982764 -0.03141628 -0.15430489 -0.28846443 -0.43600833 -0.5520186 -0.6237602
-0.6556464 -0.6323104 -0.5313762 -0.3883723 -0.17995837 0.047370102 0.19404772 0.25389794
0.23209327 0.13549462 -0.009866899 -0.16506214 -0.30369127 -0.43924382 -0.5463894 -0.62862
-0.6704554 -0.677343 -0.61545324 -0.46389693 -0.2666204 -0.08086673 0.08042454 0.1691448
0.07802035 0.023915168 -0.081796944 -0.2133331 -0.35986397 -0.49753693 -0.62190354 -0.69737333
-0.73196435 -0.6999869 -0.6017575 -0.45334005 -0.23828577 -0.015112058 0.14592454 0.21867062
0.20195234 0.092823334 -0.06014805 -0.20783482 -0.34584633 -0.5005933 -0.6105837 -0.7042629
-0.75588214 -0.76283264 -0.71109974 -0.56745887 -0.3779213 -0.17030549 -0.011877973 0.08430247
0.06236101 0.00060308987 -0.1016983 -0.24690998 -0.38199508 -0.53660417 -0.66187334 -0.74659735
-0.7836581 -0.7459828 -0.6391998 -0.48295486 -0.27201888 -0.031932388 0.1227983 0.18525393
0.1703696 0.06579171 -0.07561647 -0.21734053 -0.3631397 -0.5247738 -0.64511245 -0.7359225
-0.79674244 -0.8119338 -0.7711576 -0.64496756 -0.45420542 -0.26254454 -0.10351617 0.0015680322
0.11075512 0.037679844 -0.07467281 -0.20883554 -0.35501096 -0.5146639 -0.654573 -0.73714024
-0.7615487 -0.72341114 -0.6130339 -0.45661363 -0.24219683 -0.01551541 0.16518462 0.2329837
0.22299995 0.12655307 -0.030636527 -0.16041978 -0.32224068 -0.4860442 -0.6061538 -0.7120989
-0.7867286 -0.8153756 -0.77180254 -0.6711129 -0.4919961 -0.31475428 -0.14519519 -0.027392386
0.18874985 0.122423485 0.0139599005 -0.120064124 -0.2754463 -0.42735565 -0.5691357 -0.6509003
-0.68124133 -0.64415836 -0.5548624 -0.3913304 -0.17607632 0.05681325 0.24054693 0.31207514
0.29174426 0.20849782 0.070149176 -0.08638594 -0.23441422 -0.40905535 -0.5410842 -0.6455653
-0.72172725 -0.75245005 -0.719557 -0.6292547 -0.4623617 -0.27472803 -0.11774629 0.014542737
00000000: 6c86 6a3e 6c0f 323e a261 e13d db0c c83b
00000010: 7913 c1bd e346 59be a644 a0be 7608 bcbe
00000020: db85 ccbe 45d7 c1be 6ffc 96be 93fc 1bbe
00000030: 2323 d93c 69a1 503e e430 a53e 4914 bd3e
00000040: 6d1d b33e 3c85 833e 89c1 fd3d a03b e33b
00000050: 3075 ccbd 17a0 43be d21a 84be 0e62 9ebe
00000060: b531 b2be 7a68 aebe 17ab 92be 0491 38be
00000070: 1be8 51bc 11e1 2b3e f948 913e d7da bb3e
00000080: 237b 6f3e 8d9c 393e 3a0c c03d c1c4 acbc
00000090: c6c7 04be f8bd 80be 50b5 babe 159a e0be
000000a0: bfa8 f2be 0ec8 e2be dbec adbe 9836 55be
000000b0: 3809 06bd ebd7 1e3e 90d6 9c3e 4fb0 b63e
000000c0: 8c44 a93e e247 693e 6613 aa3d 3674 0dbd
000000d0: 1f15 1abe abcc 85be f535 abbe eff1 cebe
000000e0: 5a5d e8be e6bb e4be e6b9 c4be daa6 88be
000000f0: 907d 9cbd e289 de3d beb3 733e 767c a73e
00000100: 0184 413e 25fc 063e 139c 093d 2d05 abbd
00000110: c275 52be 2c12 afbe f830 e7be e4c7 06bf
00000120: 11f6 0dbf 1cb0 08bf c8ed d9be 38c8 93be
00000130: 49bd c5bd ba6f ee3d eec8 843e 45d8 9b3e
00000140: 435a 8d3e 9dac 343e 55d1 153d 2fd9 c5bd
00000150: 9a54 66be 8706 b6be 0962 e6be 6a12 03bf
00000160: 2f33 10bf 5755 10bf 27a0 00bf 2258 b8be
00000170: daa5 2bbe 9c57 dd3c c139 2f3e 57b1 833e
00000180: eaed 073e af15 853d 5bae 00bd 1a02 1ebe
00000190: 9cb1 93be 7c3c dfbe 1751 0dbf c0ae 1fbf
000001a0: 71d8 27bf 18df 21bf 4508 08bf bcd8 c6be
000001b0: 0247 38be 2707 423d 72b4 463e e9fe 813e
000001c0: dca9 6d3e 1abf 0a3e c6a8 21bc 0d06 29be
000001d0: 6c7d 9bbe 91e4 e0be 2de0 0bbf 3eed 20bf
000001e0: f7a2 2bbf 5a66 2dbf 588e 1dbf e683 edbe
000001f0: 7882 88be 759d a5bd 9fb5 a43d 4b34 2d3e
00000200: 22c9 9f3d bee9 c33c 2885 a7bd fe73 5abe
00000210: 1740 b8be 29bd febe 1235 1fbf 0f87 32bf
00000220: 0462 3bbf 5732 33bf c80c 1abf 301c e8be
00000230: 2f01 74be 9198 77bc 3e6d 153e 31eb 5f3e
00000240: 98cc 4e3e 291a be3d cd5d 76bd a7d2 54be
00000250: c512 b1be e226 00bf 374f 1cbf 934a 34bf
00000260: 7e81 41bf 0049 43bf a20a 36bf fc44 11bf
00000270: e77e c1be 9064 2ebe d49b 42bc c6a6 ac3d
00000280: 426e 7f3d ad18 1e3a 3347 d0bd f8d5 7cbe
00000290: dc94 c3be e45e 09bf 8870 29bf 0121 3fbf
000002a0: d19d 48bf bbf8 3ebf 99a2 23bf dc45 f7be
000002b0: 0f46 8bbe 89cb 02bd ad7d fb3d 35b3 3d3e
000002c0: 5e75 2e3e cebd 863d cfdc 9abd 848e 5ebe
000002d0: 72ed b9be 9357 06bf 1726 25bf 6b65 3cbf
000002e0: 50f7 4bbf e5da 4fbf 966a 45bf 981c 25bf
000002f0: 9d8d e8be 3d6c 86be 4900 d4bd 6e86 cd3a
00000300: 95d3 e23d 2e56 1a3d 0fee 98bd fcd8 55be
00000310: ffc3 b5be 03c1 03bf 1992 27bf 39b5 3cbf
00000320: dbf4 42bf 7931 39bf caef 1cbf 43c9 e9be
00000330: 7202 78be 5934 7ebc 2826 293e 4793 6e3e
00000340: 195a 643e 2197 013e 74f9 fabc 1545 24be
00000350: bbfc a4be c9da f8be e52c 1bbf 1d4c 36bf
00000360: 0c67 49bf 75bc 50bf da94 45bf 0ece 2bbf
00000370: eae6 fbbe 7927 a1be 0cae 14be ff65 e0bc
00000380: a447 413e 2ab9 fa3d 11b8 643c 2ee4 f5bd
00000390: 4c07 8dbe 5cce dabe e1b2 11bf 67a1 26bf
000003a0: d565 2ebf 90e7 24bf 760b 0ebf 755c c8be
000003b0: 5a4d 34be 03b5 683d ef51 763e 50c8 9f3e
000003c0: 815f 953e 7480 553e 5faa 8f3d 1deb b0bd
000003d0: 480a 70be b46f d1be 7e84 0abf c443 25bf
000003e0: 1ec3 38bf 91a0 40bf e334 38bf d616 21bf
000003f0: acba ecbe 27a9 8cbe f824 f1bd a944 6e3c

conv.weight f4 [3, 3, 3, 3]
0.16372746 0.06441497 0.1075677 -0.004157291 0.08510991 0.02553569 0.023229644 0.016388984
0.00056196033 0.069255196 -0.032816716 0.08728544 -0.18833935 -0.045245506 0.18614866 0.082963765
-0.15261048 -0.03724314 0.050941758 0.00973966 -0.13780071 -0.07877305 0.05969588 0.03196422
0.06423795 0.16082738 -0.11568576 0.18445438 0.024498373 0.0015974861 -0.047694154 0.04067994
0.14306076 0.064563125 -0.08744892 -0.16160884 0.031936094 0.15769278 0.095826454 0.14932375
-0.06876603 0.06191876 -0.037734393 -0.09981359 0.16524993 -0.04209488 0.0634655 -0.06895431
0.031219874 -0.1722178 -0.16244802 0.113304235 0.06023061 0.106388696 0.17007999 -0.18487854
0.104280725 0.12756611 -0.12255432 -0.12873824 -0.12594056 -0.15556034 0.0121955145 0.104615934
0.10416384 0.11987335 -0.091412924 -0.11266122 0.0034830759 -0.036824267 0.053044926 0.13615479
-0.07147844 -0.18108773 -0.09128856 0.12581924 -0.08518607 -0.04183802 0.16721189 -0.061978064
-0.14872678
00000000: 2ca8 273e ffeb 833d 744c dc3d e239 88bb
00000010: 1b4e ae3d 3930 d13c 184c be3c 3142 863c
00000020: 8550 133a abd5 8d3d d26a 06bd b5c2 b23d
00000030: 08dc 40be 5a53 39bd c19d 3e3e e8e8 a93d
00000040: ec45 1cbe 438c 18bd 4ea8 503d 1893 1f3c
00000050: a11b 0dbe c453 a1bd ab83 743d eaec 023d
00000060: 308f 833d efaf 243e a8ec ecbd 9ce1 3c3e
00000070: d0b0 c83c bd62 d13a f25a 43bd 02a0 263d
00000080: 857e 123e ac39 843d 6b18 b3bd ca7c 25be
00000090: 6ccf 023d 377a 213e a940 c43d 53e8 183e
000000a0: 34d5 8cbd 879e 7d3d 618f 1abd 116b ccbd
000000b0: 4737 293e ae6b 2cbd 33fa 813d eb37 8dbd
000000c0: d2c0 ff3c dd59 30be c658 26be 0d0c e83d
000000d0: 5fb4 763d 51e2 d93d 7329 2e3e cd50 3dbe
000000e0: 2291 d53d b1a0 023e c2fd fabd f5d3 03be
000000f0: 90f6 00be 364b 1fbe b2cf 473c e140 d63d
00000100: da53 d53d 2980 f53d b336 bbbd edba e6bd
00000110: 5144 643b 0bd5 16bd a345 593d 296c 0b3e
00000120: 4a63 92bd 106f 39be 7ff5 babd c2d6 003e
00000130: 0976 aebd 585e 2bbd 9839 2b3e b6dc 7dbd
00000140: d54b 18be

conv.bias f4 [3]
0.003920416 0.06586095 0.008943601
00000000: d576 803b 1be2 863d 2e88 123c
