trained_nets/rec_net.pth (torch, 994436 bytes, 10 tensors)

conv0.weight f4 [96, 3, 5, 5]
0	0x3e126141	0.14294912
1	0x3e18e610	0.14931512
2	0x3d33258b	0.043736976
3	0x3cded76f	0.027202336
4	0xbaddf92b	-0.001693522
5	0x3e1717ec	0.14755219
6	0x3def9ae5	0.11699466
7	0x3d1e0cb9	0.038586352
8	0xbc8c304d	-0.017112875
9	0x3d1aec34	0.037822917
10	0x3e3ea185	0.18616302
11	0x3c6eec2c	0.014582675
12	0x3dba7b54	0.09105554
13	0x3e33d2ab	0.17560832
14	0xbd5e3ae7	-0.054255392
15	0x3e0ef276	0.13959679
16	0x3e3e58ea	0.18588606
17	0x3df56498	0.11982077
18	0x3e1e6e22	0.154717
19	0x3db4a991	0.08821405
20	0x3d1136c5	0.035452623
21	0x3dd5c288	0.104374945
22	0x3e0bbcda	0.1364626
23	0x3e1ad3a7	0.15119801
24	0x3daf2fe3	0.085540555
25	0x3e02104a	0.12701526
26	0x3dc72ea7	0.09725695
27	0x3d97576a	0.0738972
28	0xbb8f1666	-0.004366684
29	0x3ce943c4	0.028474696
30	0x3da4e6f5	0.08051864
31	0x3df35abd	0.11882541
32	0x3e0fd5ca	0.14046398
33	0x3e2512b4	0.16120416
34	0x3e11bbbc	0.14231771
35	0x3dae4289	0.08508784
36	0xbd056206	-0.032564186
37	0x3d98bf65	0.074583806
38	0x3e2258bb	0.1585416
39	0xbd47bda1	-0.04876483
40	0x3d60d9b4	0.054895118
41	0x3e275656	0.16341528
42	0xbbe15e2c	-0.0068776812
43	0x3e362caa	0.17790475
44	0xbc86c0ef	-0.01644942
45	0x3e1a2167	0.15051804
46	0x3de01e93	0.109433316
47	0x3d6d51bb	0.057939272
48	0x3da403eb	0.0800856
49	0xbd0dee0f	-0.03465086
50	0xbdba98bc	-0.09111163
51	0xbdda661e	-0.106640086
52	0x3d51da05	0.05123331
53	0xbdb610ab	-0.08889898
54	0xbc975a98	-0.018475816
55	0xbe04fe94	-0.12987739
56	0xbc9c79db	-0.019101074
57	0xbe05abb9	-0.13053788
58	0xbda7eaed	-0.081991054
59	0x3d4d9a9d	0.05019628
60	0x3d82c785	0.063857116
61	0x3d83efd3	0.06442227
62	0x3ca411c6	0.020028006
63	0xbb292424	-0.0025808895
64	0xbdb999d2	-0.09062542
65	0x3ce17fce	0.027526762
66	0xbe182ea3	-0.1486154
67	0xbdef0a42	-0.116718784
68	0xbdeca556	-0.11554973
69	0xbd66a091	-0.05630547
70	0xb933f7e0	-0.00017163111
71	0xbe1ef345	-0.15522487
72	0xbde8f172	-0.11374177
73	0xbd7cf4be	-0.06175684
74	0x3d020ec4	0.031752363
75	0x3dde3014	0.10849014
76	0x3dcbcb8a	0.09950931
77	0x3de9da45	0.11418585
78	0x3d70f306	0.058825515
79	0xbbc10f23	-0.005891697
80	0x3e19e113	0.15027265
81	0x3e2465a0	0.16054392
82	0x3d117fc4	0.035522237
83	0xbd71aecf	-0.0590046
84	0xbd2c2944	-0.04203154
85	0x3e350175	0.17676337
86	0xbd172607	-0.0369015
87	0x3e2f1419	0.1709751
88	0x3e27a57d	0.16371723
89	0x3cf8feed	0.030394996
90	0x3d9c853b	0.07642599
91	0x3e27b1eb	0.16376464
92	0xbce4bb02	-0.027921204
93	0x3d81559e	0.06315158
94	0xbca29f3e	-0.019851323
95	0x3deae064	0.1146858
96	0xbd51687e	-0.051125042
97	0xbc73a88c	-0.014871728
98	0x3d914e59	0.07095022
99	0xbc55372c	-0.013013642
100	0x3e02e477	0.12782465
101	0x3d3536b3	0.04424162
102	0xbd05f686	-0.032705806
103	0x3e1d41c0	0.15357113
104	0x3c9aa4d8	0.018877432
105	0xbd267282	-0.040636547
106	0xbbeb0c2d	-0.0071730823
107	0xbd36d525	-0.044636864
108	0xbb2e3d06	-0.0026586666
109	0x3e1fca01	0.15604402
110	0x3e1e2a15	0.1544574
111	0x3e0e23ea	0.13880888
112	0x3d095da9	0.033536587
113	0x3dcf0014	0.10107437
114	0xbb27185e	-0.0025496702
115	0x3d8bbeb8	0.06823486
116	0x3e1e0423	0.15431266
117	0x3be69219	0.007036459
118	0x3df3e81d	0.119095065
119	0x3e172f28	0.14764082
120	0x3ba6cc54	0.005090276
121	0x3c5f8fc3	0.013645115
122	0x3c4bef5b	0.0124472035
123	0xbb850627	-0.0040595713
124	0x3d86e330	0.06586301
125	0x3d3f1177	0.046647515
126	0x3d59c94b	0.053170484
127	0xbd1b083f	-0.03784966
128	0x3d456984	0.04819633
129	0x3c8ed2c1	0.01743448
130	0x3c93db03	0.018048769
131	0x3d307f14	0.04308994
132	0xbdf1314c	-0.11776981
133	0xbdda7bde	-0.10668157
134	0xba81db29	-0.0009907234
135	0x3b24be0f	0.0025137698
136	0xbe194db8	-0.14971054
137	0xbcf1168e	-0.0294297
138	0xbe0a673d	-0.13515945
139	0xbc1243b7	-0.008927277
140	0xbd5ea0c0	-0.054352522
141	0xbdde5b4a	-0.10857256
142	0xbdb20bba	-0.08693643
143	0x3d547caa	0.0518767
144	0x3d81df35	0.063414015
145	0xbdee8174	-0.11645785
146	0xbdd4d36e	-0.103918895
147	0xbdb8b649	-0.09019143
148	0xbdb4bf1d	-0.088255145
149	0xbd8191a4	-0.06326607
150	0xbe09e0b8	-0.1346463
151	0x3c8bd68d	0.01707008
152	0xbd96cf21	-0.073637255
153	0xbd55ec88	-0.052227527
154	0xbd0f2f6a	-0.034957327
155	0xbe095e05	-0.13414772
156	0xbe08aeba	-0.13347903
157	0xbdac0bb6	-0.08400671
158	0xbe2a877a	-0.16653243
159	0xbd52000c	-0.051269576
160	0xbe1ddf92	-0.15417317
161	0xbdbbaa83	-0.09163382
162	0xbe2dc17e	-0.16968343
163	0x3d20f544	0.039296404
164	0xbdb434d1	-0.087991364
165	0xbbbc303e	-0.0057430556
166	0xbd886c91	-0.066613324
167	0xbdb7af94	-0.08969036
168	0xbdc8e4ae	-0.09809242
169	0xbe282c0b	-0.16423051
170	0xbd3b002e	-0.04565447
171	0xbd5ab985	-0.05339958
172	0xbd6c5717	-0.057700243
173	0xbe0a8ab7	-0.13529478
174	0xbe082776	-0.13296303
175	0x3ddd033a	0.10791631
176	0x3e005bac	0.1253497
177	0x3e1298b8	0.1431607
178	0x3d8ddda5	0.06927041
179	0x3d2fc105	0.042908687
180	0x3e06c924	0.13162667
181	0x3d4ece2a	0.050489582
182	0x3e065e56	0.13121924
183	0x3debdcd5	0.1151673
184	0x3dffbf51	0.124876626
185	0x3c82a458	0.015947506
186	0x3dc3db0e	0.09563266
187	0x3d05d544	0.03267409
188	0x3d406486	0.046970867
189	0xbd236848	-0.039894372
190	0x3e028d04	0.12749106
191	0x3e0bac13	0.1363986
192	0xbcd06e3a	-0.025443185
193	0x3de96066	0.1139534
194	0x3df225e3	0.118236326
195	0x3d09e0c0	0.033661604
196	0xbd056f52	-0.032576866
197	0xbc781172	-0.015140878
198	0xbd274197	-0.040834036
199	0xbcf822c4	-0.030290015
200	0x3deae770	0.114699244
201	0x3e0af275	0.13569053
202	0x3b2711de	0.0025492827
203	0x3d79bc7c	0.06097077
204	0x3c820810	0.015872985
205	0x3d696ef2	0.05699057
206	0x3dc76478	0.0973596
207	0x3e24ed6e	0.16106197
208	0x3d76299d	0.06009828
209	0xbcab458a	-0.020907182
210	0x3d46b5d2	0.04851324
211	0xbcb3e376	-0.021959048
212	0x3de9d692	0.11417879
213	0x3e3549b6	0.177039
214	0x3d494ffa	0.049148537
215	0x3e19c383	0.15015988
216	0x3e181a0b	0.14853685
217	0x3e36d33f	0.17854021
218	0x3e38883b	0.18020718
219	0x3dc7a075	0.097474016
220	0xbd5a0dc5	-0.053235788
221	0xbcb6e1e7	-0.022324516
222	0x3e24ed7d	0.1610622
223	0x3d9b7a48	0.07591683
224	0xbca49ff9	-0.020095812
225	0x3d8c9e28	0.068661034
226	0xbd010264	-0.03149642
227	0xbcedaa85	-0.029011974
228	0xbe0b143b	-0.13581936
229	0x3d9f3f6d	0.077757694
230	0xbdace3a9	-0.0844186
231	0xbe0b441a	-0.13600197
232	0xbd88e106	-0.06683545
233	0xbd443b86	-0.04790833
234	0xbc9bab57	-0.0190026
235	0xbd943c5c	-0.07238075
236	0xbcc402ec	-0.023927175
237	0xbdec1458	-0.11527318
238	0xbda2762f	-0.07932698
239	0x3cb666ce	0.022265818
240	0x3d4b28cf	0.049599465
241	0xbd053e51	-0.032530133
242	0xbe32adca	-0.17449108
243	0xbdb0375f	-0.08604311
244	0x3c721dcc	0.014777612
245	0xbd08eb42	-0.033427484
246	0x3d08caea	0.03339664
247	0xbcb752be	-0.022378322
248	0x3ce4f45a	0.027948547
249	0xbdb75b5a	-0.08952971
250	0x3d7a9d0a	0.06118492
251	0x3cf6dc6f	0.030134408
252	0xbd9d21f9	-0.076724954
253	0x3b486cf8	0.0030582529
254	0x3d85ac42	0.06526996
255	0x3d94fadc	0.0727441

conv0.bias f4 [96]
0	0xbc09a2bc	-0.008400615
1	0x3d70acb5	0.058758456
2	0xbd993df5	-0.074825205
3	0x3dab2336	0.08356325
4	0xbd0b6541	-0.03403211
5	0xb906b9b0	-0.0001284841
6	0xbc8bb8c2	-0.017055873
7	0xbdd2bad3	-0.1028954
8	0xbd7814be	-0.060566656
9	0x3d2aba76	0.04168173
10	0x3ddd7689	0.108136244
11	0xbd07b10a	-0.033127822
12	0xbcadedb2	-0.021231506
13	0xbcbc2d36	-0.022970777
14	0xbe05bdc2	-0.13060668
15	0x3dbd7349	0.092505045
16	0x3d7ffa9c	0.06249486
17	0x3db5341f	0.08847832
18	0x3d8292eb	0.06375679
19	0x3b72f57d	0.0037072592
20	0xbc9567ad	-0.018237913
21	0xbb573148	-0.003283577
22	0x3dcef29c	0.10104868
23	0xbcda619c	-0.026657872
24	0x3cf2c274	0.029633738
25	0x3d9b894a	0.07594545
26	0xbd776031	-0.06039447
27	0x3b30c0e7	0.0026970448
28	0x3d8be545	0.06830839
29	0xbdd7c239	-0.10535092
30	0xbd0dd212	-0.034624167
31	0x3ce89afa	0.028394211
32	0x3dd0a8b2	0.10188426
33	0x3d0da4c8	0.034580976
34	0x3d314953	0.043282818
35	0xbc108372	-0.0088204015
36	0xbcb1e250	-0.02171436
37	0x82bc49f4	-2.7666564e-37
38	0xbd38f02f	-0.045150932
39	0xbce5d37e	-0.028054949
40	0x3b796d4f	0.0038059538
41	0x3dcc93c0	0.099891186
42	0xbdbdebc3	-0.092734836
43	0x82c10ec4	-2.8367276e-37
44	0x3cc35c40	0.0238477
45	0x3bc4878a	0.005997603
46	0x3d72657b	0.05917881
47	0x3d19bb51	0.037532154
48	0x3e020d27	0.1270033
49	0x82cc3fb5	-3.0011672e-37
50	0xbd1e8fb7	-0.038711276
51	0x3c979d5f	0.018507658
52	0x82ce7be6	-3.0340094e-37
53	0xbdb5b331	-0.08872069
54	0xbd5c848e	-0.05383735
55	0xbca244f0	-0.019808263
56	0xbd9aea7e	-0.07564257
57	0x3c81472b	0.015781006
58	0xbdab0e06	-0.08352284
59	0x3ddf4002	0.109008804
60	0xbd344d8c	-0.044019267
61	0x3d31a7fa	0.043373086
62	0xbd18b725	-0.037284035
63	0xbdf5fce7	-0.12011128
64	0xbda948c2	-0.082658306
65	0xbd9ea98e	-0.07747184
66	0x3e032317	0.12806354
67	0x3d82c742	0.06385662
68	0xbda4899b	-0.08034059
69	0xbdd8a816	-0.10578935
70	0xbe2c161a	-0.16805306
71	0x3da968da	0.08271952
72	0x3d309850	0.043114007
73	0x3dae0b78	0.08498281
74	0x3c9a940f	0.018869428
75	0xbdacee14	-0.08443847
76	0x3cbe7f72	0.02325413
77	0x3ddc7039	0.10763592
78	0x3d542d18	0.051800817
79	0xbdc6a5e6	-0.09699611
80	0xbd92a3d2	-0.071601525
81	0xbdca4691	-0.09876741
82	0x3dbc45af	0.091929786
83	0x3da2db48	0.07951981
84	0x3cdcebf1	0.026967974
85	0x3d2f9a56	0.042871796
86	0x3d84e34b	0.06488665
87	0xbd321624	-0.043478146
88	0x3dcf6c63	0.10128095
89	0x3d8153f7	0.06314843
90	0x3d9dd617	0.0770685
91	0x3cd48181	0.025940659
92	0xbd20a94b	-0.03922395
93	0x3ccf35bf	0.025294183
94	0x3d142429	0.036167298
95	0x3c1b9e30	0.009498164

conv.weight f4 [96, 96, 5, 5]
0	0x3c929c18	0.017896697
1	0x3c9ff305	0.01952506
2	0xbbd7d1f2	-0.0065863067
3	0x3ca8e082	0.020614866
4	0x3c84b89e	0.016201314
5	0x3dad3757	0.08457821
6	0xbd640c45	-0.055675764
7	0x3d5f660a	0.05454067
8	0x3d333cd9	0.0437592
9	0x3ba24a56	0.004952709
10	0x3b84b2d6	0.004049639
11	0xbc2d6437	-0.010582975
12	0xbc99bc96	-0.018766683
13	0x3cadfae7	0.021237804
14	0x3c053a76	0.008131614
15	0x3c083b7f	0.008314966
16	0x3d65e523	0.056126725
17	0x3bf1127f	0.0073569412
18	0x3c40ee9a	0.011775637
19	0x3c39bcd1	0.011336521
20	0xbd7d644f	-0.06186324
21	0x3af4f5f5	0.0018689024
22	0xbd23fe87	-0.040037658
23	0xbbbf8f50	-0.0058459416
24	0xbbfb3808	-0.0076665916
25	0x3dafce52	0.08584274
26	0xbcb2fd10	-0.021849185
27	0x3d615c3f	0.055019613
28	0x3cd5ccb8	0.026098594
29	0x3ced39d6	0.028958242
30	0xbc822b1c	-0.015889697
31	0xbb986896	-0.0046511395
32	0x3d02eeba	0.03196595
33	0x3c9898e3	0.01862759
34	0x3c0adf66	0.008476114
35	0x3c9b8158	0.018982574
36	0xbc82fa46	-0.01598848
37	0xbade67f9	-0.0016968242
38	0x3c8f4a39	0.017491447
39	0x3bbef4ca	0.005827521
40	0xbccc0eda	-0.024909426
41	0x3d28c685	0.041204948
42	0x3dd16d8f	0.10225975
43	0xbb01cff7	-0.0019807795
44	0x3cce14ec	0.02515646
45	0xbd0f44f5	-0.034977872
46	0xbb66461b	-0.0035137
47	0x3c699661	0.0142570445
48	0xbbe1c690	-0.0068901256
49	0xbc2bae45	-0.010478561
50	0xbd00c6e5	-0.03143968
51	0xbbc45efc	-0.0059927683
52	0xbd02f450	-0.031971276
53	0x3a07b7ad	0.0005177211
54	0xbc9b8086	-0.018982183
55	0x3b4ab741	0.0030931982
56	0xbbf2d4b6	-0.007410611
57	0x3c1e8fbb	0.009677823
58	0xbe27597f	-0.16342734
59	0xbdd819fb	-0.105518304
60	0x3d1b54fc	0.037922844
61	0xbca8c894	-0.020603456
62	0x3b382c77	0.0028102675
63	0xbe38013c	-0.17969221
64	0xbdc6aa79	-0.09700484
65	0x3d6d403e	0.057922594
66	0xbb1256da	-0.00223296
67	0xbc92124a	-0.017830987
68	0xbe1a4238	-0.15064323
69	0xbda963e7	-0.08271008
70	0xbd4a0e60	-0.049330115
71	0xbcc619ed	-0.024182284
72	0xbcc8f09a	-0.02452879
73	0xbdaf1789	-0.08549411
74	0xbd89b6f6	-0.0672435
75	0x3c6adacf	0.014334395
76	0x3c901853	0.017589724
77	0x3d12e3a2	0.03586162
78	0x3d15ef72	0.036605306
79	0xbb9220f7	-0.004459496
80	0xbc5c1195	-0.013431926
81	0x3c59fff4	0.013305653
82	0x3c4520c7	0.0120317405
83	0xbca5acc5	-0.020223984
84	0x3af70a1a	0.0018847615
85	0x3d40cfa7	0.047073033
86	0x3cc5ba34	0.02413664
87	0xbcbf21fd	-0.023331637
88	0xbced24a7	-0.028948141
89	0x3ad75697	0.0016429004
90	0x3d061248	0.032732278
91	0x3af03096	0.0018325027
92	0x3c36e6f7	0.011163465
93	0xbc8f5343	-0.017495757
94	0xbbbfaf71	-0.0058497717
95	0xbd40d61b	-0.047079187
96	0x3957f993	0.00020596971
97	0xbb3506e6	-0.002762252
98	0x3b9b880a	0.0047464417
99	0x3bf9738f	0.0076126526
100	0xbc7c9d22	-0.015418323
101	0xbd027785	-0.031852264
102	0x39df02c8	0.00042535947
103	0xbc90a61a	-0.017657328
104	0xbb06e253	-0.0020581677
105	0x3dcbc03a	0.09948774
106	0x3c90f989	0.017697113
107	0x3d1d4ecf	0.038405236
108	0xbc6760d5	-0.014122208
109	0xbca918f9	-0.02064179
110	0x3d532102	0.05154515
111	0xbc83a2a0	-0.016068757
112	0xbd065d71	-0.032803956
113	0xba111005	-0.0005533698
114	0xbcf21409	-0.02955057
115	0x3d1c1b91	0.038112227
116	0x3d0d1292	0.03444154
117	0x3cde8e5a	0.027167488
118	0xbca78b95	-0.0204523
119	0xbc93a0e6	-0.018021058
120	0x3c8f6def	0.017508475
121	0x3c88be39	0.016692268
122	0xbdb6e48c	-0.089303106
123	0xbcba84db	-0.022768429
124	0xbc93c5c4	-0.018038638
125	0xbd253b13	-0.04033954
126	0xbdc2ffa1	-0.095214136
127	0xbccc8253	-0.024964487
128	0xbc328f3e	-0.010898409
129	0xbc849585	-0.016184578
130	0x3c6540ba	0.013992483
131	0x3c6ad164	0.014332149
132	0xbda002d9	-0.07813043
133	0x3d19b71c	0.037528142
134	0x3ccb64e0	0.024828374
135	0xbcd8fc5f	-0.026487527
136	0xbd14ecaf	-0.03635853
137	0xbbafa873	-0.005360657
138	0x3da976f0	0.08274639
139	0x3d907ed2	0.07055439
140	0xbc7febbc	-0.015620168
141	0x3cf37831	0.029720398
142	0x3c491fc0	0.012275636
143	0x3d7d4e13	0.061842036
144	0x3d926a0f	0.07149135
145	0x3c964c43	0.018346911
146	0xbbbbde5a	-0.0057332935
147	0xbd1d27fc	-0.03836821
148	0x3d7754e1	0.06038368
149	0x3d147a61	0.036249522
150	0x3d77f0c4	0.060532346
151	0x3d95ecd9	0.07320566
152	0x3d13a369	0.036044512
153	0x3c98e041	0.01866162
154	0x3cf337f7	0.029689772
155	0x3d12a644	0.035803095
156	0xbc85427e	-0.016267058
157	0x3c35f3b3	0.011105466
158	0xbce4976e	-0.027904239
159	0xbd5e3146	-0.05424621
160	0x3c35065e	0.011048881
161	0x3a122833	0.0005575448
162	0xbd4f1f50	-0.05056697
163	0xbd50df9b	-0.050994497
164	0xbd82032f	-0.063482635
165	0x3d5c960b	0.05385403
166	0x3d1ef40b	0.038806956
167	0x3bdc7ecb	0.006728982
168	0xbd94e478	-0.072701395
169	0xbd5b8d92	-0.05360181
170	0x3d654a19	0.05597887
171	0x3c2a665b	0.01040038
172	0xbc1ff105	-0.009762053
173	0xbd6578c3	-0.05602337
174	0xbd2e2413	-0.04251487
175	0xbc493052	-0.012279587
176	0xbcfe2b33	-0.031026458
177	0x3ce05453	0.027383959
178	0xbcdb29e9	-0.026753383
179	0xbc7bce4a	-0.015369007
180	0x3c2f2173	0.010689127
181	0x3c6d16ab	0.0144707365
182	0x3d832d92	0.06405176
183	0xbcf54a04	-0.02994252
184	0x3b2d282b	0.0026421647
185	0x3bbe6d37	0.0058113593
186	0x3d0186b9	0.031622622
187	0xbdc838f2	-0.097764865
188	0xbcde5719	-0.02714114
189	0xbd19b71e	-0.03752815
190	0xbd4d9514	-0.050191
191	0x3c7e82d0	0.015534118
192	0x3d4329f6	0.04764744
193	0xbd4e3e84	-0.05035259
194	0xbca3a3db	-0.019975593
195	0xbb16e019	-0.0023021756
196	0xbd615ec2	-0.05502201
197	0xbd18fa06	-0.037347816
198	0xbd37f626	-0.04491248
199	0xbce586f4	-0.028018452
200	0x3ca63207	0.020287527
201	0xbca9609b	-0.020675948
202	0xbc68dfc2	-0.014213504
203	0x3c5e4779	0.013566845
204	0x3b308e56	0.0026940308
205	0x3cc87eaf	0.02447447
206	0xbcf09f8b	-0.029372951
207	0xbc4d1d00	-0.012519121
208	0xbcc397f5	-0.02387617
209	0xbccd7a8b	-0.025082847
210	0xbcbf1b28	-0.023328379
211	0xbcd9ac36	-0.026571374
212	0xbc0635b3	-0.008191514
213	0xbbafbc50	-0.005363025
214	0xbd548a94	-0.05188997
215	0x3c10786c	0.008817773
216	0x3b3bccb4	0.0028655948
217	0x3b2721ab	0.0025502245
218	0xbcb5bdce	-0.022185232
219	0xbccea86d	-0.025226796
220	0x3c8c21bf	0.017105935
221	0x3b4ace8a	0.003094586
222	0xbcda02de	-0.026612695
223	0xbd46ac11	-0.04850394
224	0xbcc18c01	-0.02362633
225	0x3b313873	0.0027041703
226	0xbc05365d	-0.008130637
227	0xbbf01334	-0.007326508
228	0x3cd0abf5	0.02547262
229	0xbbe05e80	-0.006847203
230	0x3c5356d1	0.012899117
231	0xbd0b7237	-0.03404447
232	0xbc2e0f6a	-0.010623792
233	0xbd1602d4	-0.03662379
234	0xbce9590a	-0.02848484
235	0xbce75b12	-0.028241668
236	0xba7e041e	-0.00096899446
237	0x3ceb214e	0.028702404
238	0xbd2883aa	-0.04114119
239	0xbcbd13cb	-0.023080727
240	0x3ce29854	0.027660526
241	0xbcdfa668	-0.027301028
242	0x3b35b5f2	0.0027726856
243	0xbcb1ecf8	-0.02171944
244	0xbcdc229b	-0.02687197
245	0x3d8be9ab	0.06831678
246	0x3cf493c0	0.029855609
247	0xbd74303f	-0.059616324
248	0x3b775528	0.0037739966
249	0xbc1acc2d	-0.009448093
250	0xbd08a5ff	-0.03336143
251	0x3b0fd634	0.0021947743
252	0xbaf0334a	-0.0018325832
253	0xbd8c1604	-0.06840137
254	0xbd62fec5	-0.05541875
255	0xbb5d3687	-0.0033754425

conv.bias f4 [96]
0	0x3cca05a2	0.024660889
1	0xbad2c0ed	-0.0016079225
2	0xbcb89768	-0.022533134
3	0xbd213e32	-0.039365955
4	0x3c9fb6eb	0.019496402
5	0x3cae6f3b	0.021293273
6	0x3c216651	0.009851054
7	0xbb160f24	-0.0022897208
8	0xb7c4c42a	-2.3456367e-05
9	0xbcf98096	-0.030456822
10	0xbc3f377d	-0.011670944
11	0xbcb54d75	-0.022131661
12	0xbc8bf744	-0.017085679
13	0xbc1398f9	-0.0090086395
14	0xbd10d367	-0.03535786
15	0xbc474346	-0.012162035
16	0xbb3c991c	-0.0028777784
17	0xbacc7d1a	-0.0015601248
18	0x3bff8876	0.00779825
19	0x82b79148	-2.697282e-37
20	0xbce8e367	-0.028428746
21	0x3c67f593	0.014157671
22	0xbd3842f6	-0.044985734
23	0x3ba7da82	0.0051224837
24	0xbab51521	-0.0013815501
25	0xbd00ab08	-0.031413108
26	0xb6265606	-2.4786e-06
27	0x3b487611	0.0030587951
28	0x3b2176d4	0.0024637477
29	0xbbe789f0	-0.007066004
30	0x3c872501	0.016497137
31	0x3915fb1d	0.00014303294
32	0xbb5d5647	-0.003377335
33	0xbd228ebd	-0.039686907
34	0x3c3b25b0	0.01142256
35	0x3c611aec	0.013739329
36	0xbcb213c1	-0.021737935
37	0xbcf50467	-0.029909326
38	0xbcda17fe	-0.026622768
39	0x2d2c8bc3	9.808101e-12
40	0x3b1a0ec5	0.0023507338
41	0xbafb1bc4	-0.0019158055
42	0x3c91aa1a	0.017781306
43	0x3c07afa0	0.008281618
44	0x3b992479	0.0046735373
45	0xba4ade73	-0.0007738836
46	0xbc340928	-0.010988511
47	0xbcb6ca16	-0.022313159
48	0xbc8e0209	-0.017334955
49	0xbbb1d673	-0.0054271757
50	0x3ba90982	0.005158604
51	0x3c54692f	0.012964531
52	0xbcdaa3ea	-0.026689488
53	0x82c1e262	-2.8488739e-37
54	0xbc30c748	-0.0107897
55	0xbbcd3674	-0.006262595
56	0x02bfec54	2.8200573e-37
57	0xbcc1d2b3	-0.02366004
58	0x3c16648b	0.009179245
59	0xbd01cee8	-0.03169146
60	0x02cbd176	2.9948394e-37
61	0xbbf8e2f0	-0.0075954124
62	0x3ba831ed	0.0051329047
63	0xbc719418	-0.014744781
64	0x3c6cfe76	0.014464965
65	0xbb30f31e	-0.0027000378
66	0x39d38626	0.00040345005
67	0xbc763826	-0.015028035
68	0x82aa8db5	-2.506059e-37
69	0xbaa6b6b1	-0.0012719241
70	0x3be81cc8	0.007083509
71	0xbb4436b9	-0.0029939844
72	0x3c0e5dd7	0.008689365
73	0xbbeb6799	-0.0071839807
74	0xbce1926f	-0.027535645
75	0x3c4e0687	0.012574798
76	0x3c897ea8	0.016784027
77	0xbbb967bd	-0.0056581185
78	0xbc82bccb	-0.015959164
79	0xbcf78782	-0.030215982
80	0xbcb7a093	-0.022415435
81	0x829901da	-2.2482392e-37
82	0xbcbda01e	-0.023147639
83	0x3c38c8df	0.01127836
84	0xbca25665	-0.019816587
85	0x3cecb615	0.028895417
86	0xbd346928	-0.044045597
87	0xbc39bd9c	-0.01133671
88	0x3b0040c9	0.0019569865
89	0x3c0c1800	0.008550644
90	0xb8ed1cfa	-0.00011306438
91	0xbcc49913	-0.023998773
92	0xbc9f86a9	-0.01947339
93	0xbc909b99	-0.01765232
94	0xbc69b567	-0.014264441
95	0x829726f8	-2.2209823e-37

batchnorm.weight f4 [96]
0	0x3f800000	1.0
1	0x3f800000	1.0
2	0x3f800000	1.0
3	0x3f800000	1.0
4	0x3f800000	1.0
5	0x3f800000	1.0
6	0x3f800000	1.0
7	0x3f800000	1.0
8	0x3f800000	1.0
9	0x3f800000	1.0
10	0x3f800000	1.0
11	0x3f800000	1.0
12	0x3f800000	1.0
13	0x3f800000	1.0
14	0x3f800000	1.0
15	0x3f800000	1.0
16	0x3f800000	1.0
17	0x3f800000	1.0
18	0x3f800000	1.0
19	0x3f800000	1.0
20	0x3f800000	1.0
21	0x3f800000	1.0
22	0x3f800000	1.0
23	0x3f800000	1.0
24	0x3f800000	1.0
25	0x3f800000	1.0
26	0x3f800000	1.0
27	0x3f800000	1.0
28	0x3f800000	1.0
29	0x3f800000	1.0
30	0x3f800000	1.0
31	0x3f800000	1.0
32	0x3f800000	1.0
33	0x3f800000	1.0
34	0x3f800000	1.0
35	0x3f800000	1.0
36	0x3f800000	1.0
37	0x3f800000	1.0
38	0x3f800000	1.0
39	0x3f800000	1.0
40	0x3f800000	1.0
41	0x3f800000	1.0
42	0x3f800000	1.0
43	0x3f800000	1.0
44	0x3f800000	1.0
45	0x3f800000	1.0
46	0x3f800000	1.0
47	0x3f800000	1.0
48	0x3f800000	1.0
49	0x3f800000	1.0
50	0x3f800000	1.0
51	0x3f800000	1.0
52	0x3f800000	1.0
53	0x3f800000	1.0
54	0x3f800000	1.0
55	0x3f800000	1.0
56	0x3f800000	1.0
57	0x3f800000	1.0
58	0x3f800000	1.0
59	0x3f800000	1.0
60	0x3f800000	1.0
61	0x3f800000	1.0
62	0x3f800000	1.0
63	0x3f800000	1.0
64	0x3f800000	1.0
65	0x3f800000	1.0
66	0x3f800000	1.0
67	0x3f800000	1.0
68	0x3f800000	1.0
69	0x3f800000	1.0
70	0x3f800000	1.0
71	0x3f800000	1.0
72	0x3f800000	1.0
73	0x3f800000	1.0
74	0x3f800000	1.0
75	0x3f800000	1.0
76	0x3f800000	1.0
77	0x3f800000	1.0
78	0x3f800000	1.0
79	0x3f800000	1.0
80	0x3f800000	1.0
81	0x3f800000	1.0
82	0x3f800000	1.0
83	0x3f800000	1.0
84	0x3f800000	1.0
85	0x3f800000	1.0
86	0x3f800000	1.0
87	0x3f800000	1.0
88	0x3f800000	1.0
89	0x3f800000	1.0
90	0x3f800000	1.0
91	0x3f800000	1.0
92	0x3f800000	1.0
93	0x3f800000	1.0
94	0x3f800000	1.0
95	0x3f800000	1.0

batchnorm.bias f4 [96]
0	0x00000000	0.0
1	0x00000000	0.0
2	0x00000000	0.0
3	0x00000000	0.0
4	0x00000000	0.0
5	0x00000000	0.0
6	0x00000000	0.0
7	0x00000000	0.0
8	0x00000000	0.0
9	0x00000000	0.0
10	0x00000000	0.0
11	0x00000000	0.0
12	0x00000000	0.0
13	0x00000000	0.0
14	0x00000000	0.0
15	0x00000000	0.0
16	0x00000000	0.0
17	0x00000000	0.0
18	0x00000000	0.0
19	0x00000000	0.0
20	0x00000000	0.0
21	0x00000000	0.0
22	0x00000000	0.0
23	0x00000000	0.0
24	0x00000000	0.0
25	0x00000000	0.0
26	0x00000000	0.0
27	0x00000000	0.0
28	0x00000000	0.0
29	0x00000000	0.0
30	0x00000000	0.0
31	0x00000000	0.0
32	0x00000000	0.0
33	0x00000000	0.0
34	0x00000000	0.0
35	0x00000000	0.0
36	0x00000000	0.0
37	0x00000000	0.0
38	0x00000000	0.0
39	0x00000000	0.0
40	0x00000000	0.0
41	0x00000000	0.0
42	0x00000000	0.0
43	0x00000000	0.0
44	0x00000000	0.0
45	0x00000000	0.0
46	0x00000000	0.0
47	0x00000000	0.0
48	0x00000000	0.0
49	0x00000000	0.0
50	0x00000000	0.0
51	0x00000000	0.0
52	0x00000000	0.0
53	0x00000000	0.0
54	0x00000000	0.0
55	0x00000000	0.0
56	0x00000000	0.0
57	0x00000000	0.0
58	0x00000000	0.0
59	0x00000000	0.0
60	0x00000000	0.0
61	0x00000000	0.0
62	0x00000000	0.0
63	0x00000000	0.0
64	0x00000000	0.0
65	0x00000000	0.0
66	0x00000000	0.0
67	0x00000000	0.0
68	0x00000000	0.0
69	0x00000000	0.0
70	0x00000000	0.0
71	0x00000000	0.0
72	0x00000000	0.0
73	0x00000000	0.0
74	0x00000000	0.0
75	0x00000000	0.0
76	0x00000000	0.0
77	0x00000000	0.0
78	0x00000000	0.0
79	0x00000000	0.0
80	0x00000000	0.0
81	0x00000000	0.0
82	0x00000000	0.0
83	0x00000000	0.0
84	0x00000000	0.0
85	0x00000000	0.0
86	0x00000000	0.0
87	0x00000000	0.0
88	0x00000000	0.0
89	0x00000000	0.0
90	0x00000000	0.0
91	0x00000000	0.0
92	0x00000000	0.0
93	0x00000000	0.0
94	0x00000000	0.0
95	0x00000000	0.0

batchnorm.running_mean f4 [96]
0	0x00000000	0.0
1	0x00000000	0.0
2	0x00000000	0.0
3	0x00000000	0.0
4	0x00000000	0.0
5	0x00000000	0.0
6	0x00000000	0.0
7	0x00000000	0.0
8	0x00000000	0.0
9	0x00000000	0.0
10	0x00000000	0.0
11	0x00000000	0.0
12	0x00000000	0.0
13	0x00000000	0.0
14	0x00000000	0.0
15	0x00000000	0.0
16	0x00000000	0.0
17	0x00000000	0.0
18	0x00000000	0.0
19	0x00000000	0.0
20	0x00000000	0.0
21	0x00000000	0.0
22	0x00000000	0.0
23	0x00000000	0.0
24	0x00000000	0.0
25	0x00000000	0.0
26	0x00000000	0.0
27	0x00000000	0.0
28	0x00000000	0.0
29	0x00000000	0.0
30	0x00000000	0.0
31	0x00000000	0.0
32	0x00000000	0.0
33	0x00000000	0.0
34	0x00000000	0.0
35	0x00000000	0.0
36	0x00000000	0.0
37	0x00000000	0.0
38	0x00000000	0.0
39	0x00000000	0.0
40	0x00000000	0.0
41	0x00000000	0.0
42	0x00000000	0.0
43	0x00000000	0.0
44	0x00000000	0.0
45	0x00000000	0.0
46	0x00000000	0.0
47	0x00000000	0.0
48	0x00000000	0.0
49	0x00000000	0.0
50	0x00000000	0.0
51	0x00000000	0.0
52	0x00000000	0.0
53	0x00000000	0.0
54	0x00000000	0.0
55	0x00000000	0.0
56	0x00000000	0.0
57	0x00000000	0.0
58	0x00000000	0.0
59	0x00000000	0.0
60	0x00000000	0.0
61	0x00000000	0.0
62	0x00000000	0.0
63	0x00000000	0.0
64	0x00000000	0.0
65	0x00000000	0.0
66	0x00000000	0.0
67	0x00000000	0.0
68	0x00000000	0.0
69	0x00000000	0.0
70	0x00000000	0.0
71	0x00000000	0.0
72	0x00000000	0.0
73	0x00000000	0.0
74	0x00000000	0.0
75	0x00000000	0.0
76	0x00000000	0.0
77	0x00000000	0.0
78	0x00000000	0.0
79	0x00000000	0.0
80	0x00000000	0.0
81	0x00000000	0.0
82	0x00000000	0.0
83	0x00000000	0.0
84	0x00000000	0.0
85	0x00000000	0.0
86	0x00000000	0.0
87	0x00000000	0.0
88	0x00000000	0.0
89	0x00000000	0.0
90	0x00000000	0.0
91	0x00000000	0.0
92	0x00000000	0.0
93	0x00000000	0.0
94	0x00000000	0.0
95	0x00000000	0.0

batchnorm.running_var f4 [96]
0	0x3f800000	1.0
1	0x3f800000	1.0
2	0x3f800000	1.0
3	0x3f800000	1.0
4	0x3f800000	1.0
5	0x3f800000	1.0
6	0x3f800000	1.0
7	0x3f800000	1.0
8	0x3f800000	1.0
9	0x3f800000	1.0
10	0x3f800000	1.0
11	0x3f800000	1.0
12	0x3f800000	1.0
13	0x3f800000	1.0
14	0x3f800000	1.0
15	0x3f800000	1.0
16	0x3f800000	1.0
17	0x3f800000	1.0
18	0x3f800000	1.0
19	0x3f800000	1.0
20	0x3f800000	1.0
21	0x3f800000	1.0
22	0x3f800000	1.0
23	0x3f800000	1.0
24	0x3f800000	1.0
25	0x3f800000	1.0
26	0x3f800000	1.0
27	0x3f800000	1.0
28	0x3f800000	1.0
29	0x3f800000	1.0
30	0x3f800000	1.0
31	0x3f800000	1.0
32	0x3f800000	1.0
33	0x3f800000	1.0
34	0x3f800000	1.0
35	0x3f800000	1.0
36	0x3f800000	1.0
37	0x3f800000	1.0
38	0x3f800000	1.0
39	0x3f800000	1.0
40	0x3f800000	1.0
41	0x3f800000	1.0
42	0x3f800000	1.0
43	0x3f800000	1.0
44	0x3f800000	1.0
45	0x3f800000	1.0
46	0x3f800000	1.0
47	0x3f800000	1.0
48	0x3f800000	1.0
49	0x3f800000	1.0
50	0x3f800000	1.0
51	0x3f800000	1.0
52	0x3f800000	1.0
53	0x3f800000	1.0
54	0x3f800000	1.0
55	0x3f800000	1.0
56	0x3f800000	1.0
57	0x3f800000	1.0
58	0x3f800000	1.0
59	0x3f800000	1.0
60	0x3f800000	1.0
61	0x3f800000	1.0
62	0x3f800000	1.0
63	0x3f800000	1.0
64	0x3f800000	1.0
65	0x3f800000	1.0
66	0x3f800000	1.0
67	0x3f800000	1.0
68	0x3f800000	1.0
69	0x3f800000	1.0
70	0x3f800000	1.0
71	0x3f800000	1.0
72	0x3f800000	1.0
73	0x3f800000	1.0
74	0x3f800000	1.0
75	0x3f800000	1.0
76	0x3f800000	1.0
77	0x3f800000	1.0
78	0x3f800000	1.0
79	0x3f800000	1.0
80	0x3f800000	1.0
81	0x3f800000	1.0
82	0x3f800000	1.0
83	0x3f800000	1.0
84	0x3f800000	1.0
85	0x3f800000	1.0
86	0x3f800000	1.0
87	0x3f800000	1.0
88	0x3f800000	1.0
89	0x3f800000	1.0
90	0x3f800000	1.0
91	0x3f800000	1.0
92	0x3f800000	1.0
93	0x3f800000	1.0
94	0x3f800000	1.0
95	0x3f800000	1.0

fc.weight f4 [50, 192]
0	0x3d1501a4	0.036378518
1	0x3d6e37f7	0.05815884
2	0xbd0f4256	-0.034975372
3	0x3d1f67f1	0.038917486
4	0x3dadc762	0.08485295
5	0x3d5d1084	0.05397083
6	0x3d65bba8	0.056087166
7	0x3d804734	0.06263581
8	0x3d8cff6e	0.06884657
9	0x3d267493	0.040638518
10	0x3b647ec9	0.003486561
11	0xbbfe86ab	-0.0077675185
12	0x3ccbca4c	0.024876736
13	0xbcb46638	-0.022021398
14	0x3d94ad9e	0.07259677
15	0x3c089379	0.0083359415
16	0xa51b6d0a	-1.3481051e-16
17	0xa8fc7ce7	-2.8031788e-14
18	0xbdd25e93	-0.10271945
19	0xbc541a57	-0.012945733
20	0xbd1350a8	-0.03596559
21	0x3d527365	0.05137958
22	0x3d62e32f	0.05539244
23	0xbdb70105	-0.08935741
24	0x3d9edf04	0.077573806
25	0xbd1d082d	-0.038337875
26	0xbd922b83	-0.071372055
27	0xbd6a681e	-0.0572282
28	0xbda90912	-0.08253683
29	0x3d4712fe	0.048602097
30	0xbd42193d	-0.04738735
31	0xbd44cfe3	-0.04804982
32	0x3a5ea3fa	0.00084930623
33	0xbd83551d	-0.064127184
34	0x3c4ba16f	0.0124286255
35	0x3dbdf9ac	0.09276137
36	0x3d5c4fb8	0.053786963
37	0xbd983a86	-0.074330375
38	0x02c0616f	2.8267789e-37
39	0x02c629aa	2.91174e-37
40	0xbd12af67	-0.035811808
41	0x3c11a7ac	0.008890074
42	0xbc6feffa	-0.014644617
43	0xbd8be107	-0.0683003
44	0x3da3f23b	0.08005186
45	0x3d88c86a	0.06678851
46	0x3cb5c808	0.022190109
47	0x3c498a39	0.012301021
48	0x3c6d6c31	0.014491127
49	0x3dc219f6	0.09477608
50	0x3d95fe69	0.073239155
51	0xbc42415b	-0.011856402
52	0x0f63c2ee	1.1229506e-29
53	0x2652b2bf	7.310063e-16
54	0x3d869bd2	0.06572689
55	0xbcdd5b74	-0.027021147
56	0x3de0c086	0.10974221
57	0x3c42cb58	0.011889301
58	0x3ce46e43	0.027884608
59	0xbd81ace8	-0.063318074
60	0xbaddfc41	-0.001693614
61	0x3cf183e7	0.029481841
62	0xbcc3d024	-0.02390296
63	0x3c730d2c	0.014834683
64	0xbcfe9503	-0.031076914
65	0xbd98bc73	-0.07457819
66	0x3d6642e8	0.05621615
67	0xbd3348bc	-0.043770537
68	0x3ad2286b	0.0016033774
69	0xbbf50cb2	-0.00747832
70	0xbce52300	-0.02797079
71	0x3d70039e	0.0585972
72	0x3ca9b088	0.02071406
73	0xbce62b6b	-0.028096875
74	0x3d887228	0.066623986
75	0x3c9ed8bf	0.019390462
76	0x3d668904	0.056283012
77	0x3d3d6d88	0.046247035
78	0x3811b3eb	3.4738256e-05
79	0x382ae3f4	4.0743456e-05
80	0x3a6a29b4	0.0008932606
81	0x3c1c2e2f	0.009532495
82	0xbd80a26d	-0.0628098
83	0x3db70e65	0.089382924
84	0x3d0bbec0	0.03411746
85	0x3d032976	0.032021962
86	0x3cb58018	0.022155806
87	0x3d8ee84b	0.069779
88	0x3d067bc7	0.032832887
89	0xbd8e919b	-0.06961366
90	0xbd18e54d	-0.037328053
91	0xbdc55e84	-0.09637168
92	0x3d583198	0.05278167
93	0xbc1c123e	-0.009525834
94	0xbc0e54a0	-0.008687168
95	0x3cadf386	0.021234285
96	0xbc18fc59	-0.009337508
97	0x3bf71ccf	0.007541276
98	0x3d3f4f40	0.046706438
99	0xbd542763	-0.051795375
100	0xbbc0d737	-0.0058850306
101	0xbd8cade8	-0.068691075
102	0xbd139fe8	-0.03604117
103	0x36a763dd	4.9886135e-06
104	0xbd1e63d3	-0.03866942
105	0xbd39d7c5	-0.04537179
106	0x02b8d274	2.7157164e-37
107	0x82b69c91	-2.6832361e-37
108	0xbda13e9e	-0.078732714
109	0x3d7e6299	0.06210575
110	0xbd757c13	-0.05993278
111	0x3c97b797	0.01852016
112	0x028bda06	2.0549354e-37
113	0x02b9bce6	2.729173e-37
114	0xbcec9209	-0.028878229
115	0xbbf4fc82	-0.0074763903
116	0xbdb71917	-0.089403324
117	0xbc930aa8	-0.017949417
118	0xbd8f2ffb	-0.069915734
119	0x3d0344d7	0.032048073
120	0x82b9ea73	-2.7317874e-37
121	0x82affcfc	-2.5859145e-37
122	0x3d7c859b	0.061650854
123	0xbd122ecf	-0.03568917
124	0xbda72449	-0.08161218
125	0xbd18bdbb	-0.037290316
126	0x3d90934d	0.070593454
127	0xbc9023b2	-0.017595146
128	0xbd773700	-0.060355186
129	0xbb78b037	-0.003794683
130	0xbc54d152	-0.012989359
131	0xbc7c8e05	-0.0154147195
132	0x3caea1cd	0.021317387
133	0xbb1afa75	-0.002364782
134	0x3d6023f6	0.054721795
135	0x3cd67e8f	0.026183395
136	0x02944933	2.178866e-37
137	0x82b5bc43	-2.6703617e-37
138	0xbbcc9547	-0.006243381
139	0x3dbaf151	0.09128059
140	0x3d392173	0.045197915
141	0x3c5abb04	0.013350252
142	0x3cbcf33c	0.023065202
143	0x3c9780a9	0.018493967
144	0x3da40a75	0.08009807
145	0x3b779223	0.0037776313
146	0xbdca6470	-0.09882438
147	0x3c854125	0.016266415
148	0xbd95f30a	-0.07321747
149	0xbdc08997	-0.09401243
150	0xbd61a1e1	-0.05508602
151	0x3d9b16c4	0.075727016
152	0xbd2d926e	-0.042375974
153	0xbd8abd09	-0.06774337
154	0xbc408472	-0.011750327
155	0xbd450203	-0.04809762
156	0x3ba8c19a	0.005150032
157	0x3db95730	0.09049833
158	0xbd99bdfe	-0.07506941
159	0xbdbf13ce	-0.09329949
160	0xbd4f1438	-0.05055639
161	0xbd7cb0af	-0.061691936
162	0x02a249a4	2.3846028e-37
163	0x82b16637	-2.606648e-37
164	0xbd2bfe63	-0.04199065
165	0xbb125b7b	-0.0022332359
166	0xbd1b9f3a	-0.037993647
167	0xbd2d85eb	-0.042364042
168	0x3d92f9a4	0.071765214
169	0x3da46aeb	0.080282055
170	0xbce4ec20	-0.027944624
171	0x3c3eb31c	0.011639383
172	0xbd1b9e54	-0.03799279
173	0x3d69aebb	0.0570514
174	0xbc43dff3	-0.011955249
175	0x1cab7f6f	1.1348772e-21
176	0xbc4516b9	-0.012029343
177	0xbd87ad9d	-0.06624911
178	0xbd4751ea	-0.048662104
179	0xbcb53a01	-0.022122385
180	0xbd95b8ae	-0.073106155
181	0x3c18c0f1	0.009323345
182	0xbc05078f	-0.008119478
183	0x3c4174e9	0.011807659
184	0xbc75f44b	-0.015011857
185	0x3d811973	0.06303682
186	0x3c8b14a0	0.016977608
187	0xbc8276f3	-0.01592586
188	0x3da96c16	0.08272569
189	0x3be684dc	0.007034881
190	0x82b38b05	-2.638148e-37
191	0x02b2ea2e	2.6289162e-37
192	0xbce0f301	-0.027459623
193	0xbda5effc	-0.08102414
194	0xbd5786b8	-0.052618712
195	0xbcd1105e	-0.0255205
196	0x3be5d193	0.0070135086
197	0xb99c8d5e	-0.00029859965
198	0x3d7e73c4	0.06212212
199	0x3dc89036	0.09793131
200	0x3cece038	0.02891551
201	0xbca1c14f	-0.019745497
202	0xbb93f773	-0.004515582
203	0x3cf33a20	0.029690802
204	0x3d3fb099	0.046799276
205	0x39b04e8b	0.00033627855
206	0xbd433055	-0.047653515
207	0x3d688812	0.05677039
208	0xa508b3fa	-1.1857098e-16
209	0xa9f33ed4	-1.0802267e-13
210	0xbd76f75d	-0.060294498
211	0xbc016381	-0.007897259
212	0x3d6b05b8	0.0573785
213	0xbd1713cb	-0.03688411
214	0xbd517b62	-0.051143058
215	0xbd1aca04	-0.037790313
216	0x3d6e4165	0.058167834
217	0x3d9cc973	0.07655611
218	0x3da72ffb	0.081634484
219	0x3d7cb67a	0.06169746
220	0xbdcc733a	-0.09982915
221	0x3cf57e6e	0.029967513
222	0x3d08d4ff	0.033406254
223	0x3d0f5102	0.034989364
224	0xbcc2832a	-0.023744185
225	0x3dbb9e9a	0.0916111
226	0x3ba36701	0.0049866443
227	0x3d8a4e8d	0.067532636
228	0x3d268497	0.04065379
229	0x3d81d9ba	0.06340356
230	0x82c96c48	-2.9596446e-37
231	0x02b85849	2.7087043e-37
232	0xbd3c53a4	-0.045978203
233	0xbd6790a2	-0.056534417
234	0xbdc34359	-0.0953433
235	0xbd56915f	-0.05238473
236	0x3d976a74	0.07393351
237	0x3da3006a	0.07959063
238	0xbd2d9ce1	-0.04238594
239	0xbd0df3fd	-0.034656513
240	0x3c05a360	0.008156627
241	0x3d363504	0.044484153
242	0x3d9a5fce	0.075378045
243	0x3cd1d1ea	0.02561279
244	0x2ed13e44	9.51528e-11
245	0x33894833	6.3926926e-08
246	0xbc9c971e	-0.019115027
247	0x3bd219ca	0.0064117657
248	0x3d809a73	0.06279459
249	0xbd435dc8	-0.04769686
250	0xbdd1b785	-0.10240082
251	0x3b030d5e	0.001999698
252	0xbd5fd1b2	-0.05464334
253	0xbdc6a6f9	-0.09699816
254	0x3c492c49	0.012278625
255	0x3d879ffd	0.06622312

fc.bias f4 [50]
0	0x3d7689c9	0.060189996
1	0xbd790240	-0.06079316
2	0x3d652415	0.055942614
3	0x3ce564c7	0.028002156
4	0xbd7b7c2d	-0.06139772
5	0x3d3943d7	0.045230713
6	0x3d6aa9c2	0.0572908
7	0xbd385637	-0.045004096
8	0x3d604c7a	0.054760434
9	0x3d637f57	0.055541363
10	0xbd817654	-0.063213974
11	0x3d55e3d4	0.052219227
12	0xbc5294f4	-0.012852896
13	0xbd86535e	-0.0655887
14	0x3d794519	0.060856912
15	0xbb41d53a	-0.0029576556
16	0x3bff32bc	0.0077880304
17	0x3d406bb1	0.046977703
18	0xbd3ea862	-0.0465473
19	0xbcf0dcff	-0.029402254
20	0x3b13c59f	0.0022548211
21	0x3d37d977	0.044885125
22	0xbd5e2335	-0.054232795
23	0xba8f563d	-0.0010935735
24	0xbcdf588a	-0.027263898
25	0x3bf2e088	0.00741202
26	0x3d2c5bb7	0.042079654
27	0x3c18ff76	0.00933825
28	0x3d89c2c7	0.06726604
29	0xbc8c1811	-0.01710132
30	0xba4d0ad9	-0.0007821746
31	0x3d1f8db7	0.03895351
32	0xbd44e0f6	-0.048066102
33	0xbbbd467c	-0.0057762247
34	0x3d71d951	0.05904514
35	0x3c578505	0.013154273
36	0x3d7454bd	0.059651125
37	0x3c381de6	0.011237597
38	0xbd54fa4e	-0.05199652
39	0xbc2c5e2f	-0.010520502
40	0xbc943726	-0.018092703
41	0x3d4b04c4	0.04956509
42	0xbb36e30a	-0.0027906322
43	0xbd5af515	-0.053456385
44	0xbd33bd13	-0.043881487
45	0x3c8d0b4d	0.017217303
46	0x3ca588e5	0.020206878
47	0xbd634370	-0.055484235
48	0x3999c0d4	0.00029326102
49	0x3c820c22	0.015874926
