trained_nets/synt_net.pth (torch, 407455 bytes, 4 tensors)

fc.weight f4 [3072, 32]
0.016950577 -0.018976491 -0.009075818 0.0980012 -0.10812051 -0.15055235 0.08350987 -0.10533981
-0.0035650965 -0.029910458 0.098508246 -0.056903977 -0.0069199856 0.040269986 -0.07464352 0.16166614
-0.06986654 -0.06365419 0.10906595 -0.009404268 -0.05997231 0.06255895 -0.09674499 0.16083467
-0.094043754 0.07333549 0.14421678 -0.14082627 -0.13284843 -0.0064916895 -0.10187555 0.045876358
-0.0809202 -0.015809326 -0.05746356 0.14034417 -0.03750161 -0.0322899 -0.14785165 0.14350712
0.10783701 0.0066968813 -0.020635497 -0.049034655 -0.0104969675 0.07885523 -0.033041213 0.0075083133
-0.09966901 -0.0051089567 0.087415196 0.06903312 0.09563463 -0.0359057 -0.12367491 -0.01784232
0.032116827 0.027618175 0.09038092 0.16312781 0.091680035 0.1407325 0.041799366 0.09626407
-0.16444814 -0.030316375 0.14257267 0.029548818 0.06571478 0.1701636 0.14859179 -0.09869997
0.17635503 0.079210214 0.11676784 0.09296701 -0.1745333 -0.10002716 0.103719875 -0.0051107057
-0.012689531 -0.11443219 -0.12318474 -0.0066131777 -0.020458965 0.09474028 0.100323215 0.017024525
-0.084673986 0.15359887 -0.08648839 0.104159616 0.13295837 -0.0327108 -0.0035160165 0.1268685
-0.0066996207 0.11620356 -0.07759763 0.07622601 0.02803661 0.06580301 0.14197834 0.036176074
-0.043475423 0.035506885 -0.092178546 -0.08172874 -0.1583565 -0.024188539 0.09456655 -0.14281397
0.024573172 0.050662976 -0.086579405 -0.06929142 0.04529745 -0.12092558 0.15514699 -0.119931065
-0.162098 0.05548742 -0.09363529 -0.100356705 0.12520836 0.043858685 0.17433047 0.07871954
0.010747067 0.083156444 0.12473958 -0.0063525415 0.14812455 0.0506332 -0.07759566 0.057622958
-0.117154054 0.122699104 0.10930372 -0.032806918 0.07371452 0.03174867 -0.17368376 -0.14587115
-0.053385157 -0.090917155 0.060992517 0.03226908 -0.107211426 -0.06192297 0.026187776 -0.12504709
0.05901958 -0.13166481 -0.12592912 -0.07204207 -0.013257839 -0.11465854 0.14414452 -0.095864
0.14718491 0.08496876 0.05018971 0.019010399 0.041292846 0.094495006 -0.058687482 0.03156129
-0.13468733 0.05685633 0.016020902 0.13270256 -0.10763024 -0.019881742 0.1443976 0.06640326
-0.016531743 -0.13774656 -0.030381935 -0.11743774 -0.15496528 0.1344217 -0.014352182 0.06254234
0.017013017 0.07583333 0.14938678 0.15367883 -0.07437602 -0.11128923 0.16167411 -0.14867707
0.03221431 -0.07442423 0.16537961 -0.17402884 -0.09480946 -0.0054204217 0.075847365 0.0845109
-0.04459973 -0.093988985 0.0913193 -0.07279844 -0.04999537 0.09252108 0.084917426 -0.07269885
-0.15439071 0.061822113 0.082377024 -0.09994586 -0.15000649 0.05903806 -0.027471399 0.11503053
0.077778466 0.112784036 0.045380417 0.091455646 0.17411746 -0.04685859 0.15713154 -0.16037256
0.06896638 -0.121906534 0.15529758 0.05404446 0.07566748 -0.14263503 0.031784393 -0.02455762
-0.10349228 -0.17497405 -0.034048986 -0.07301764 0.03765018 0.106305584 0.02690267 0.10290747
0.16083393 0.0019925132 -0.15952888 -0.090818726 -0.13335393 -0.038909294 0.15713789 -0.10503439
-0.072956465 0.042656254 0.1262621 -0.05855645 -0.08756144 -0.11679589 0.04096153 0.02356622
00000000: f0db 8a3c 9674 9bbc bdb2 14bc dab4 c83d
00000010: 496e ddbd 652a 1abe 3907 ab3d 66bc d7bd
00000020: 65a4 69bb c706 f5bc b1be c93d 2514 69bd
00000030: 0cc1 e2bb 24f2 243d b4de 98bd cf8b 253e
00000040: 3016 8fbd 215d 82bd f85d df3d 5c14 1abc
00000050: 86a5 75bd e81e 803d 3d22 c6bd d8b1 243e
00000060: 039a c0bd eb30 963d 90ad 133e c334 10be
00000070: 6b09 08be 3db8 d4bb 21a4 d0bd d9e8 3b3d
00000080: 7db9 a5bd 8f82 81bc e95e 6bbd 62b6 0f3e
00000090: 4a9b 19bd 6a42 04bd 6c66 17be 88f3 123e
000000a0: a6d9 dc3d 8371 db3b c60b a9bc 90d8 48bd
000000b0: 79fb 2bbc da7e a13d 3956 07bd 4c08 f63b
000000c0: 441f ccbd 0969 a7bb bd06 b33d 3d61 8d3d
000000d0: 17dc c33d db11 13bd 4549 fdbd 0f2a 92bc
000000e0: ef8c 033d 833f e23c a219 b93d fa0a 273e
000000f0: bec2 bb3d 2e1c 103e d035 2b3d 1926 c53d
00000100: 1865 28be 0c5a f8bc 92fe 113e 5d10 f23c
00000110: 7895 863d 5e3f 2e3e 7228 183e 3623 cabd
00000120: 6a96 343e f738 a23d fa23 ef3d 7d65 be3d
00000130: dbb8 32be 0adb ccbd 166b d43d b577 a7bb
00000140: c0e7 4fbc 6d5b eabd 4848 fcbd 5bb3 d8bb
00000150: 8f99 a7bc 3107 c23d 4276 cd3d 0477 8b3c
00000160: 8e69 adbd 0649 1d3e d320 b1bd a351 d53d
00000170: 3d26 083e c3fb 05bd f86c 66bb d1e9 013e
00000180: 7e88 dbbb 22fc ed3d 82eb 9ebd 621c 9c3d
00000190: 08ad e53c bac3 863d c562 113e 5d2d 143d
000001a0: 4913 32bd ab6f 113d 1bc8 bcbd 6661 a7bd
000001b0: 3528 22be 0b27 c6bc 1bac c13d d33d 12be
000001c0: ad4d c93c fb83 4f3d 8b50 b1bd a9e8 8dbd
000001d0: d289 393d d5a7 f7bd dade 1e3e 6b9e f5bd
000001e0: 05fd 25be c746 633d dcc3 bfbd d187 cdbd
000001f0: 9f36 003e 2aa5 333d b083 323e b637 a13d
00000200: 7714 303c ed4d aa3d 7777 ff3d fb28 d0bb
00000210: f6ad 173e c264 4f3d 79ea 9ebd 0d06 6c3d
00000220: 77ee efbd ab49 fb3d a1da df3d 8c60 06bd
00000230: a3f7 963d e50a 023d 28da 31be 3f5f 15be
00000240: 65aa 5abd c632 babd 4ad3 793d 952c 043d
00000250: aa91 dbbd f1a2 7dbd bf87 d63c 580c 00be
00000260: 84be 713d 24d3 06be 90f3 00be cb8a 93bd
00000270: 6837 59bc 19d2 eabd 9f9a 133e 5854 c4bd
00000280: a4b7 163e 1a04 ae3d ba93 4d3d b2bb 9b3c
00000290: b022 293d 9986 c13d 4962 70bd 6946 013d
000002a0: 7aeb 09be 2fe2 683d 443e 833c 2ee3 073e
000002b0: 3e6d dcbd 09df a2bc f7dc 133e 6ffe 873d
000002c0: 946d 87bc 6f0d 0dbe 89e3 f8bc 3383 f0bd
000002d0: 38af 1ebe d8a5 093e 6a25 6bbc 3316 803d
000002e0: e25e 8b3c 814e 9b3d d9f8 183e fc5d 1d3e
000002f0: 7452 98bd 9ceb e3bd e68d 253e cd3e 18be
00000300: 27f3 033d bb6b 98bd 4659 293e 9e34 32be
00000310: 762b c2bd cb9d b1bb dd55 9b3d 0d14 ad3d
00000320: 35ae 36bd 4c7d c0bd 9d05 bb3d 5917 95bd
00000330: f2c7 4cbd b17b bd3d 30e9 ad3d 22e3 94bd
00000340: 9918 1ebe 2f39 7d3d 49b5 a83d 6ab0 ccbd
00000350: 4d9b 19be e5d1 713d b30b e1bc 2095 eb3d
00000360: 514a 9f3d 51fb e63d d1e0 393d 194d bb3d
00000370: d94b 323e cbee 3fbd 17e7 203e b438 24be
00000380: 3f3e 8d3d 22aa f9bd 5406 1f3e b95d 5d3d
00000390: 8df7 9a3d eb0e 12be 5a30 023d 102d c9bc
000003a0: c3f3 d3bd 662c 33be f376 0bbd 468a 95bd
000003b0: 1337 1a3d beb6 d93d fd62 dc3c 27c1 d23d
000003c0: a6b1 243e d394 023b 8a5b 23be 2bff b9bd
000003d0: ef8d 08be 5a5f 1fbd c1e8 203e 451c d7bd
000003e0: 336a 95bd 53b8 2e3d da4a 013e e3d8 6fbd
000003f0: 6a53 b3bd af32 efbd 47c7 273d f20d c13c

fc.bias f4 [3072]
-0.022328557 -0.0043219696 -0.15910912 0.062301576 -0.15639226 0.040971015 -0.047394972 -0.14148873
-0.0066174767 0.11323589 -0.0729939 0.02767088 0.13912778 -0.17599988 -0.009009964 0.068551995
0.031965412 -0.1313904 -0.065560706 -0.1428334 -0.17374466 0.111754745 -0.01431385 -0.036631383
-0.028473103 0.078395076 0.054783337 -0.16345043 0.0064369617 -0.17353281 -0.0800243 -0.018440342
0.16935082 -0.08249236 0.1635697 -0.12717313 -0.05301688 0.051686976 0.017281009 0.08118823
-0.08203163 0.14453861 -0.0153700495 0.16125353 -0.013699495 -0.027944582 -0.1378922 -0.111936614
0.058396164 -0.007965122 0.015592142 0.11233892 -0.102806464 -0.09639977 -0.16963902 -0.14403208
-0.17094336 -0.009076872 -0.022729374 -0.025422746 -0.02911441 0.037412703 0.07708633 0.009435372
0.03577224 0.052976713 -0.12463152 0.13406269 0.026258098 0.12603861 0.007775672 0.014087794
-0.008490103 0.16963002 0.16877715 0.064038634 -0.128617 0.0059309676 0.03552128 -0.10570101
-0.06143575 0.08418799 0.010860399 0.069835916 0.17232409 -0.118999496 -0.08636612 -0.09285383
0.05221908 0.07669407 0.12625515 0.0790025 -0.092998326 0.15905185 0.087637946 0.0113677215
0.1628717 0.16054668 0.11114366 -0.09861836 0.096810006 -0.07862351 -0.16688573 -0.07116225
0.014240514 0.0503293 -0.15467693 -0.08599246 0.00990139 -0.039287165 -0.095645525 -0.010320857
0.05809553 -0.11006666 0.067867234 -0.109477684 0.14425519 0.14883853 0.0050542923 0.14347638
0.042454857 -0.1560051 0.15093206 0.14360493 0.06666253 0.057059772 -0.07201708 0.061461527
0.004930844 -0.09243221 -0.056231946 -0.03768143 -0.058809437 -0.14074665 0.16399726 0.018339062
0.057201196 0.15954758 -0.048658326 0.07071632 -0.15136929 0.034181766 -0.0030028154 -0.10305578
0.040034447 -0.1425733 0.114407405 -0.090768315 -0.17548825 -0.13360591 -0.15039216 0.068345815
-0.13619119 -0.11787529 0.072764 0.024493262 -0.03886538 -0.041155215 -0.10993234 -0.15657662
0.1034133 0.07919789 0.1393 -0.1742886 0.102707736 -0.12560922 -0.092305325 -0.08698481
0.032144874 0.13998842 -0.06660477 0.14704053 -0.12790148 0.15867545 0.16900922 0.12840863
0.14674178 -0.049751952 -0.007954564 0.005779429 -0.060726803 -0.09024017 0.09771441 0.06959671
0.059723116 0.03753811 0.14210868 -0.05507554 -0.12354581 -0.030893788 -0.14686672 -0.042776015
0.041397415 -0.093694694 0.17593603 0.017414004 0.09240035 0.019791042 0.0002299532 0.022523338
0.11165098 0.029439973 -0.100589834 0.104624934 -0.083034515 0.12316447 0.080040276 0.17278758
-0.02800481 -0.14358364 0.17159666 -0.12968457 -0.02795986 0.009328762 0.05450683 0.17346
-0.0050922665 -0.011346437 -0.16333394 -0.16220294 0.071361504 -0.011691599 -0.11756121 0.022415379
-0.15087299 0.15612571 0.10898168 -0.13289833 -0.043046262 0.10140087 0.07473332 0.0785824
-0.03947891 0.047065806 -0.11889662 -0.098582044 -0.01744359 -0.09151777 0.17586413 -0.13190317
0.0787002 -0.093803644 -0.118786 0.00472639 0.0075691314 -0.07789683 0.14993611 -0.14924595
-0.06396244 -0.091908135 -0.079938285 -0.12318128 0.019202568 0.03195127 -0.011088014 -0.09378934
00000000: 61ea b6bc 4f9f 8dbb 80ed 22be f02f 7f3d
00000010: 4b25 20be 39d1 273d 3b21 42bd 6ce2 10be
00000020: 6bd7 d8bb 38e8 e73d d37d 95bd 0bae e23c
00000030: 8377 0e3e 5039 34be 879e 13bc fd64 8c3d
00000040: 2aee 023d 348b 06be b144 86bd eb42 12be
00000050: 1fea 31be acdf e43d a384 6abc ca0a 16bd
00000060: 6d40 e9bc 998d a03d 7e64 603d 8d5f 27be
00000070: 26ed d23b 96b2 31be c8e3 a3bd 3310 97bc
00000080: 4d6a 2d3e c1f1 a8bd d17e 273e ac39 02be
00000090: 3a28 59bd b9b5 533d e790 8d3c 0446 a63d
000000a0: 3300 a8bd ee01 143e a9d2 7bbc a51f 253e
000000b0: d973 60bc 09ec e4bc 9d33 0dbe 063f e5bd
000000c0: d130 6f3d 2580 02bc 2f76 7f3c f311 e63d
000000d0: 328c d2bd 3e6d c5bd dab5 2dbe 257d 13be
000000e0: c70b 2fbe 29b7 14bc f432 babc 5d43 d0bc
000000f0: 5881 eebc 103e 193d 70df 9d3d d296 1a3c
00000100: ea85 123d 1cfe 583d cf3e ffbd bb47 093e
00000110: 391b d73c 4410 013e 10cb fe3b 7ed0 663c
00000120: 131a 0bbc 7eb3 2d3e ebd3 2c3e b026 833d
00000130: 2db4 03be 9058 c23b c37e 113d c579 d8bd
00000140: 0ea4 7bbd c16a ac3d d1ef 313c 2206 8f3d
00000150: ba75 303e 02b6 f3bd b8e0 b0bd 262a bebd
00000160: ade3 553d c811 9d3d 0849 013e 10cc a13d
00000170: e875 bebd 7dde 223e 867b b33d ae3f 3a3c
00000180: d7c7 263e 5966 243e 4a9f e33d 6cf8 c9bd
00000190: 5344 c63d 5d05 a1bd 18e4 2abe 84bd 91bd
000001a0: 0b51 693c 1926 4e3d a163 1ebe d11c b0bd
000001b0: 7139 223c 94eb 20bd cde1 c3bd d018 29bc
000001c0: 94f5 6d3d a16a e1bd fafd 8a3d d635 e0bd
000001d0: a2b7 133e 2169 183e 7a9e a53b 79eb 123e
000001e0: 25e5 2d3d cdbf 1fbe ef8d 1a3e 2c0d 133e
000001f0: 5d86 883d 82b7 693d b17d 93bd 15bf 7b3d
00000200: eb92 a13b 194d bdbd 7853 66bd d857 1abd
00000210: 2ae2 70bd e41f 10be e6ee 273e cd3b 963c
00000220: cd4b 6a3d 7160 233e f44d 47bd b8d3 903d
00000230: 8d00 1bbe 2e02 0c3d e2ca 44bb e90e d3bd
00000240: 29fb 233d bcfe 11be 6e4e ea3d bde4 b9bd
00000250: 31b3 33be fdcf 08be 6700 1abe e4f8 8b3d
00000260: b475 0bbe 9a68 f1bd 4b05 953d 18a6 c83c
00000270: 4e31 1fbd 5f92 28bd 3524 e1bd 9f55 20be
00000280: 5aca d33d 8132 a23d a9a4 0e3e b678 32be
00000290: 6f58 d23d b49f 00be 930a bdbd 1825 b2bd
000002a0: 58aa 033d 2059 0f3e 1568 88bd cb91 163e
000002b0: 9bf8 02be d17b 223e c110 2d3e 8d7d 033e
000002c0: 7a43 163e b4c8 4bbd dc53 02bc 5d61 bd3b
000002d0: abbc 78bd d7cf b8bd 7e1e c83d b888 8e3d
000002e0: 3aa0 743d 90c1 193d f084 113e e496 61bd
000002f0: 9605 fdbd f814 fdbc 3b64 16be e735 2fbd
00000300: 5690 293d 01e3 bfbd 9328 343e d0a7 8e3c
00000310: 653c bd3d d320 a23c 981f 7139 dd82 b83c
00000320: 45a9 e43d 192c f13c 0b02 cebd 9945 d63d
00000330: 000e aabd a73d fc3d 28ec a33d 3aef 303e
00000340: 586a e5bc 9707 13be 09b7 2f3e 08cc 04be
00000350: 140c e5bc aad7 183c 8e42 5f3d 809f 313e
00000360: 07dd a6bb 68e6 39bc 0341 27be 8718 26be
00000370: fb25 923d 1f8e 3fbc efc3 f0bd 75a0 b73c
00000380: 737e 1abe 6bdf 1f3e c931 df3d 8016 08be
00000390: 4751 30bd 42ab cf3d c80d 993d cfef a03d
000003a0: a3b4 21bd 13c8 403d 1280 f3bd 62e5 c9bd
000003b0: dce5 8ebc ab6d bbbd ba15 343e a011 07be
000003c0: 922d a13d 201c c0bd 1346 f3bd d5df 9a3b
000003d0: 7a06 f83b 6088 9fbd da88 193e eed3 18be
000003e0: bdfe 82bd 553a bcbd afb6 a3bd 7846 fcbd
000003f0: b44e 9d3c 56df 023d 80aa 35bc a014 c0bd

conv.weight f4 [3, 3, 3, 3]
0.16775733 0.1720332 0.087489896 -0.15467401 -0.124580376 -0.026893089 -0.100943975 -0.04841556
0.17102334 -0.026653439 0.12439912 0.008933254 -0.086313985 0.12382341 -0.18288583 -0.14476319
-0.06476103 0.09750961 -0.17884898 0.14836733 0.18421482 -0.17927618 0.17198351 0.11147857
-0.12206249 -0.15022317 -0.0018358289 0.10915522 0.16447668 0.13411443 -0.10178323 0.18366222
0.059612762 0.0055487817 0.1923061 0.15471557 -0.124191076 -0.19022675 0.028275266 -0.019299157
0.15683268 -0.03468251 0.015919548 -0.022031989 -0.14577237 0.11387693 -0.12353056 -0.01334591
-0.15597436 0.0175305 -0.14770779 0.059248745 0.1288906 0.12952045 0.047513075 0.12438209
0.09989154 0.17591554 -0.050596137 -0.05352283 -0.05946958 0.12617701 -0.18278676 0.1599251
-0.021651337 0.086391896 0.099008255 0.11814574 -0.069827475 0.16068663 0.065750256 -0.051043686
-0.04344308 -0.16494203 0.12621434 0.05430879 -0.13146201 0.17772491 0.008383659 0.10688107
-0.04428089
00000000: 94c8 2b3e 7929 303e e72d b33d dd62 1ebe
00000010: ff23 ffbd e54e dcbc b7bb cebd 654f 46bd
00000020: be20 2f3e 5058 dabc f7c4 fe3d c85c 123c
00000030: 63c5 b0bd 2197 fd3d 6c46 3bbe cd3c 14be
00000040: 6ea1 84bd 1eb3 c73d 3024 37be 9bed 173e
00000050: cfa2 3c3e 2d94 37be 721c 303e e04e e43d
00000060: e6fb f9bd 1ad4 19be 32a0 f0ba c68c df3d
00000070: 936c 283e 4b55 093e ba73 d0bd f311 3c3e
00000080: 832c 743d 8ed2 b53b e4eb 443e c26d 1e3e
00000090: e457 febd cdca 42be 88a1 e73c 4419 9ebc
000000a0: bf98 203e 3f0f 0ebd b669 823c 6e7c b4bc
000000b0: 5a45 15be 4f38 e93d 97fd fcbd cea8 5abc
000000c0: beb7 1fbe 209c 8f3c b640 17be d0ae 723d
000000d0: e6fb 033e 02a1 043e 129d 423d 0abc fe3d
000000e0: f093 cc3d 3423 343e e53d 4fbd c13a 5bbd
000000f0: 6096 73bd 8c34 013e 742c 3bbe 68c3 233e
00000100: 255e b1bc 3cee b03d d7c4 ca3d 65f6 f13d
00000110: b501 8fbd 098b 243e 12a8 863d 2f13 51bd
00000120: 5ff1 31bd 90e6 28be 553e 013e e572 5e3d
00000130: fa9d 06be 85fd 353e 9d5b 093c 76e4 da3d
00000140: e15f 35bd

conv.bias f4 [3]
0.06813857 0.026898572 -0.16253395
00000000: 3c8c 8b3d 655a dc3c 4d6f 26be
