trained_nets/synt_net.pth (torch, 628575 bytes, 4 tensors)

fc.weight f4 [3072, 50]
0	0xbe31c029	-0.1735846
1	0xbd98ed57	-0.07467144
2	0x3bda8d69	0.0066696894
3	0xbda4b7cc	-0.08042869
4	0xbcb70957	-0.02234332
5	0x3cf1c656	0.02951352
6	0xbdce704e	-0.10080014
7	0x3d5bb2e8	0.053637415
8	0xbd2f167a	-0.042746045
9	0x3d27db4b	0.04098062
10	0xbc48b457	-0.012250028
11	0x3e0b2a8b	0.13590448
12	0xb9e070cc	-0.0004280865
13	0x3cb41889	0.021984356
14	0x3d8bce88	0.06826502
15	0xbba10b7d	-0.0049146996
16	0xbd930cb2	-0.07180156
17	0x3ddfa27e	0.10919665
18	0x3d60bce3	0.054867636
19	0xbd814a44	-0.06312993
20	0x3c81afd6	0.015830915
21	0xbdeeddd4	-0.11663404
22	0x3be302cc	0.0069278236
23	0x3d90215f	0.07037615
24	0x3de120ae	0.10992561
25	0x3d74eecd	0.05979805
26	0xbc64d878	-0.013967626
27	0xbdc3d004	-0.0956116
28	0xbda20f57	-0.07913082
29	0xbcde3bd4	-0.027128138
30	0x3aaa3758	0.0012986464
31	0x3b99a78c	0.0046891626
32	0xbc007b9c	-0.007841971
33	0x3d8119fd	0.06303785
34	0x3cb0c5e0	0.02157873
35	0x3d4bf37e	0.04979276
36	0x3ca97909	0.020687597
37	0xbd9234a4	-0.07138947
38	0xbd649711	-0.05580813
39	0xbbb3aa23	-0.0054829284
40	0x3dca435e	0.098761305
41	0x3df4f405	0.119606055
42	0x3cb667a9	0.022266226
43	0xbdfe54c8	-0.124185145
44	0xbe1e98e0	-0.15488005
45	0xbdbfe287	-0.093693785
46	0xbe1a2fb4	-0.1505726
47	0x3c02abe2	0.00797555
48	0xbd7cf5b6	-0.061757766
49	0x3c67a406	0.014138227
50	0xbe086d82	-0.13323024
51	0xbd705436	-0.05867406
52	0xbccab3b7	-0.024743898
53	0xbe0096a5	-0.12557466
54	0x3cc708c1	0.024296166
55	0x3caf7fb0	0.02142319
56	0xbd467251	-0.048448864
57	0x3bdf46c2	0.006813855
58	0x3c492262	0.012276264
59	0x3d1a7b2b	0.03771512
60	0xbc7ee1b1	-0.015556739
61	0x3db86ad4	0.09004751
62	0xbd4dbf1b	-0.05023108
63	0x3be3d33d	0.006952672
64	0x3e243b12	0.16038159
65	0x3d814a2d	0.06312976
66	0xbd9f72c1	-0.077855594
67	0x3d379a5b	0.04482494
68	0x3c2b9f03	0.010474923
69	0xbd9987fb	-0.07496639
70	0xbd0f447a	-0.034977414
71	0xbd0bd4f3	-0.03413863
72	0x3d5bf074	0.05369611
73	0x3c9a45a4	0.018832035
74	0x3cd23196	0.02565841
75	0x3d7fe89e	0.0624777
76	0xbdadf9d7	-0.08494919
77	0xbe11074f	-0.14162944
78	0xbb38f875	-0.0028224264
79	0xbdb101a3	-0.0864289
80	0xbd45bd7e	-0.048276417
81	0x3d785e42	0.060636766
82	0xbcc22342	-0.023698453
83	0x3d8c73f1	0.068580516
84	0x3cc2c546	0.023775708
85	0x3cdf1f1e	0.027236518
86	0x3d0e4642	0.03473497
87	0x3c636243	0.013878408
88	0xbcefd87f	-0.029278038
89	0x3c76d2fd	0.015064952
90	0x3d166e80	0.036726475
91	0x3d8a5935	0.06755296
92	0x3c42442a	0.011857072
93	0xbe014b0b	-0.12626283
94	0xbe1d26ae	-0.15346786
95	0xbe0d2ab7	-0.13785826
96	0xbdd1f6ac	-0.10252127
97	0xbd940fac	-0.07229552
98	0x3b1295e7	0.002236718
99	0xbc3ab4c2	-0.011395635
100	0xbdd6666f	-0.104687564
101	0xbd7325a2	-0.05936206
102	0xbb5711dd	-0.0032817044
103	0xbe187a75	-0.14890464
104	0x3d8a2d9d	0.06746981
105	0x3d162d42	0.036664255
106	0xbd46c8e4	-0.048531428
107	0x3d0428b3	0.032265376
108	0xbd68d9aa	-0.056848206
109	0x3d8f2620	0.06989694
110	0xbd318add	-0.04334532
111	0x3d86b955	0.06578318
112	0xbd984e5e	-0.07436822
113	0x3d6680ed	0.056275297
114	0x3da751d4	0.08169904
115	0x3e08a759	0.13345088
116	0xbde31238	-0.11087459
117	0x3dc770b4	0.09738293
118	0x3da8bba4	0.082389146
119	0xbe01b08b	-0.12665002
120	0xbd50ec2e	-0.05100649
121	0xbbd16973	-0.0063907444
122	0x3d47dd7f	0.04879522
123	0x3cebac8c	0.0287688
124	0x3d81a1f0	0.06329715
125	0x3d7ec44f	0.062198933
126	0xbd74a8e6	-0.059731387
127	0xbd937c0b	-0.07201394
128	0xbc4a3003	-0.012340548
129	0xbd286453	-0.0411113
130	0xbd20d0ce	-0.03926163
131	0x3c563fc5	0.013076727
132	0xbcda742b	-0.026666721
133	0x3c9d1e56	0.019179504
134	0x3cfcfe0a	0.030882854
135	0x3caa6c17	0.020803494
136	0x3d8fbc2d	0.070183136
137	0x3d240917	0.04004773
138	0x3d068fb1	0.03285188
139	0xbcb270bb	-0.02178227
140	0x3df36063	0.11883619
141	0x3d6f1553	0.058369946
142	0x3c4b5847	0.012411184
143	0xbddbf406	-0.10739903
144	0xbdf18f78	-0.117949426
145	0xbe125446	-0.1428996
146	0xbe14dd69	-0.14537586
147	0xbcef652a	-0.029223043
148	0xbd51eba8	-0.05125013
149	0xbd6b31d4	-0.057420567
150	0xbe1616b1	-0.14657094
151	0xbe03960d	-0.12850209
152	0xbd9f2a02	-0.07771684
153	0xbe0b6707	-0.1361352
154	0x3d42bcb9	0.04754326
155	0xbd389e21	-0.04507268
156	0xbd7c7027	-0.061630394
157	0xbc1b859a	-0.009492302
158	0xbd2dcbc9	-0.042430673
159	0x3c338bfe	0.01095867
160	0x3c1cf5bb	0.009580071
161	0x3d8b9d05	0.068170585
162	0xbd8cd5d3	-0.06876721
163	0x3d06ed6a	0.03294126
164	0x3dae873f	0.0852189
165	0x3dbe6f88	0.09298617
166	0xbcbe4172	-0.023224566
167	0x3d950218	0.0727579
168	0x3d0ab2b8	0.033861846
169	0xbdbdd1bc	-0.09268519
170	0x3d876418	0.06610888
171	0xbded59e5	-0.11589412
172	0x3c4d5c06	0.012534147
173	0x3d9fbbd9	0.07799501
174	0x3b6965fa	0.0035613761
175	0x3da1d407	0.07901769
176	0xbddc83ed	-0.1076735
177	0xbdf9e50a	-0.12201889
178	0x3c40b6d7	0.011762342
179	0xbc6fdbb4	-0.014639784
180	0xbb582d43	-0.0032985962
181	0x3b61cbc8	0.0034453738
182	0xbcf48a9f	-0.029851256
183	0x3d34960c	0.04408841
184	0x3d971640	0.07377291
185	0x3d0ea83d	0.034828413
186	0x3e017fc0	0.12646389
187	0x3a8ca343	0.0010729808
188	0xbc7a3acb	-0.015272806
189	0x3d39d9f4	0.045373872
190	0x3dab03e1	0.08350349
191	0x3d59b75b	0.053153377
192	0xbd3a2a32	-0.045450397
193	0xbe0a8ff1	-0.13531472
194	0xbe2162bc	-0.1576032
195	0xbe176dd5	-0.14787991
196	0xbda48853	-0.08033814
197	0xbce2f262	-0.027703468
198	0xbd8372ed	-0.06418405
199	0xbc4fafeb	-0.012676219
200	0xbe26e832	-0.16299513
201	0xbd9b2df5	-0.07577125
202	0xbab07c50	-0.0013464782
203	0xbd106b8b	-0.03525881
204	0x3c1a740d	0.009427083
205	0xbd30a037	-0.043121543
206	0xbb8adc4c	-0.004237687
207	0x3d109e5a	0.035307266
208	0xbdaf0345	-0.085455455
209	0x3c05f121	0.008175165
210	0x3c4c8b54	0.01248439
211	0xbd799a94	-0.060938433
212	0xbd98f44e	-0.074684724
213	0x3de956ea	0.11393531
214	0x3cfecf80	0.031104803
215	0x3d3f1f7a	0.046660878
216	0xbde69a8e	-0.11259948
217	0x3d17aa25	0.037027497
218	0x3d931356	0.071814224
219	0xbdc8804e	-0.09790097
220	0x3c22f85b	0.009946908
221	0xbcea701d	-0.028617913
222	0x3d564fe1	0.052322272
223	0xbd73fb04	-0.05956556
224	0x3d690d45	0.05689742
225	0x3d14e798	0.036353678
226	0xbcfad395	-0.030618468
227	0xbc13cdda	-0.009021247
228	0xbc7e7d62	-0.015532823
229	0x3d032377	0.032016244
230	0xbcac4449	-0.021028655
231	0x3c5ef6a5	0.013608609
232	0xbc2ff066	-0.010738468
233	0x3ca71773	0.020396924
234	0x3e041669	0.12899174
235	0x3d255f4a	0.040374078
236	0x3d89a5f7	0.067211084
237	0xbd43dceb	-0.047818106
238	0x3d0b4af6	0.034007035
239	0x3a91031c	0.0011063549
240	0x3d707dd9	0.058713768
241	0x3cb44f68	0.02201052
242	0x3d09e3dd	0.033664573
243	0xbd796500	-0.060887337
244	0xbdb92804	-0.090408355
245	0xbe0a6416	-0.13514742
246	0xbe0a23b0	-0.13490176
247	0x3d041c11	0.03225333
248	0xbd57bcf4	-0.052670434
249	0xbd143d76	-0.036191426
250	0xbd7dcee3	-0.06196488
251	0xbceeacab	-0.029135069
252	0xbd3f6375	-0.04672571
253	0x3d8ca11d	0.068666674
254	0xbd07583a	-0.033043124
255	0x3c15059f	0.009095578

fc.bias f4 [3072]
0	0x3d7d57da	0.06185136
1	0xbd8bb23e	-0.068211064
2	0xbcebd19e	-0.028786477
3	0x3c0dfe51	0.008666591
4	0x3d3a475b	0.045478206
5	0xbd302218	-0.043001264
6	0xbd6f6968	-0.058450133
7	0xbcfe267c	-0.03102421
8	0xbcc2014c	-0.023682259
9	0x3ca72ee7	0.020408107
10	0xbd28cbf2	-0.041210122
11	0xbb8db680	-0.004324734
12	0xbc7dea0c	-0.015497696
13	0x3d2e40ac	0.042542145
14	0xbceb3a45	-0.028714309
15	0xbd518a81	-0.05115748
16	0xba315b2c	-0.00067656
17	0x3cf5ebc9	0.030019658
18	0x3dc6a3bb	0.09699198
19	0x3d8e2103	0.0693989
20	0x3de74db2	0.11294116
21	0xbd0f144e	-0.034931473
22	0xbd7fcf9d	-0.062453855
23	0xbd1eb3f0	-0.03874582
24	0xbdbe650b	-0.09296616
25	0xbd739cf5	-0.059475858
26	0x3a21c9b5	0.0006171719
27	0x3df8ccc6	0.121484324
28	0x3e336efd	0.17522807
29	0x3e22640f	0.15858482
30	0x3e0d5790	0.13802934
31	0x3dd02540	0.10163355
32	0x3da77c78	0.081780374
33	0x3d4578a8	0.04821077
34	0xbe1b0e63	-0.15142207
35	0x3ddcfc46	0.10790305
36	0x3c1b2136	0.009468367
37	0xbd38a0c4	-0.045075193
38	0xbe1afae7	-0.15134774
39	0x3d2252ec	0.03962986
40	0xbd8dd67d	-0.06925676
41	0x3d7f6e5b	0.062361103
42	0xbc150736	-0.0090959575
43	0xbbad2c20	-0.005284801
44	0x3da861c4	0.08221772
45	0xbd3277ff	-0.04357147
46	0xbe066027	-0.13122617
47	0xbc132e5b	-0.00898322
48	0x3c9100b4	0.01770053
49	0x3cac1eb3	0.021010732
50	0x3de50153	0.11181893
51	0x3cd4c959	0.025974916
52	0x3dca3dc6	0.098750636
53	0x3d32ffcd	0.043700982
54	0xbe0ef86c	-0.13961953
55	0xbe0bfc58	-0.1367048
56	0x3ca8f279	0.020623432
57	0xbd4fa8db	-0.050698142
58	0x3c514fa4	0.012775335
59	0x3d904a62	0.070454374
60	0x3e26a9f0	0.16275764
61	0x3e30854a	0.17238346
62	0x3e1c99d8	0.15293062
63	0x3de2dd79	0.11077399
64	0x3d5d2257	0.053987827
65	0x3c9119b6	0.017712455
66	0xbd64d8a4	-0.055870667
67	0x3defd173	0.11709871
68	0x3e02684e	0.12735102
69	0xbddb8045	-0.10717825
70	0xbdc8478f	-0.09779274
71	0x3dac6292	0.08417238
72	0xbd875f38	-0.066099584
73	0x3d7ab459	0.06120715
74	0x3d516253	0.05111916
75	0xbcd30e2e	-0.025763597
76	0xbda40b6b	-0.0800999
77	0xbd829fbc	-0.06378123
78	0xbdd12b87	-0.1021338
79	0xbdb8f9d9	-0.0903203
80	0xbdae884f	-0.085220926
81	0x3ded4471	0.1158532
82	0x3dd35a40	0.10319948
83	0x3d5f290e	0.054482512
84	0x3e0616f1	0.13094689
85	0x3d4735fe	0.048635475
86	0xbe0d5244	-0.13800913
87	0xbdca62f9	-0.09882159
88	0xbd71c0c3	-0.059021723
89	0xbd4c5a95	-0.049891073
90	0x3db1292b	0.0865043
91	0x3db9999d	0.090625025
92	0x3e0aada3	0.135428
93	0x3dff7159	0.12472791
94	0x3e2ccca2	0.16874936
95	0x3dda6f33	0.10665741
96	0xbc2a370f	-0.010389104
97	0xbc583477	-0.013196102
98	0xbda671ff	-0.08127212
99	0x3b8ab3ce	0.00423286
100	0x3d1c6eb6	0.03819152
101	0x3d99c26d	0.07507787
102	0xbca862f7	-0.020555003
103	0x3c899bb8	0.016797885
104	0xbd80f8f5	-0.06297485
105	0x3d9916e8	0.07475072
106	0xbd95f760	-0.07322574
107	0xbd298a7c	-0.041391835
108	0x3cee567d	0.029093975
109	0x3bb770ed	0.0055981786
110	0xbe297fb0	-0.16552615
111	0xbdf010a7	-0.11721926
112	0xbab4724b	-0.0013766972
113	0x3d51e83a	0.05124686
114	0x3d15a027	0.036529686
115	0x3d15515b	0.03645454
116	0x3c9f85b5	0.019472936
117	0x3c82fe5e	0.015990432
118	0xbda29145	-0.07937864
119	0xbdf12aa9	-0.11775715
120	0xbd701370	-0.058612287
121	0xbe01e97a	-0.1268672
122	0x3d80313e	0.06259392
123	0x3d3f1fd7	0.046661224
124	0x3dea915e	0.11453508
125	0x3e026383	0.12733273
126	0x3e15b787	0.14620791
127	0x3df406a3	0.11915328
128	0x3e072312	0.13196972
129	0xbd9a706b	-0.07540973
130	0x3d252d91	0.04032666
131	0xbc0e2a85	-0.00867713
132	0x3d5db725	0.05412974
133	0xbd5ece57	-0.054396
134	0x3c813523	0.015772408
135	0xbda0d557	-0.07853191
136	0x3dad1cd6	0.08452766
137	0xbd319f54	-0.043364838
138	0x3d822874	0.06355372
139	0x3d4d07bc	0.050056204
140	0x3d6af1bb	0.05735944
141	0xbd6228f6	-0.055214845
142	0xbe32b5ea	-0.17452207
143	0xbdd21a3b	-0.10258909
144	0x3d02e215	0.03195389
145	0x3cf1fd54	0.029539742
146	0x3e1fc186	0.15601167
147	0x3d1f9260	0.038957953
148	0xbb28d036	-0.002575887
149	0x3b188f25	0.002327868
150	0xbe136ae9	-0.14396252
151	0xbe1fe7c7	-0.1561576
152	0xbe2d9d39	-0.16954507
153	0xbd27147c	-0.04079102
154	0x3d9ea5e0	0.07746482
155	0x3d43727e	0.04771661
156	0x3e1b0d91	0.15141894
157	0x3dc028bb	0.09382769
158	0x3e0fe9cd	0.14054032
159	0x3dd51eb0	0.10406244
160	0x3d80eb60	0.06294894
161	0x3db431af	0.08798539
162	0x3d3ce799	0.046119306
163	0xbc734cac	-0.014849823
164	0x3d38ab45	0.04508521
165	0xbccc4078	-0.024933085
166	0x3ceec317	0.02914576
167	0x3dac88b8	0.084245145
168	0x3e068b76	0.13139138
169	0x3d0fbd2c	0.035092518
170	0x3c372bd0	0.011179879
171	0x3e27e861	0.1639724
172	0x3debfa08	0.11522299
173	0x3ca779e9	0.020443873
174	0xbc3a7114	-0.011379499
175	0x3d8c61ed	0.06854615
176	0x3c3a3843	0.011365953
177	0x3e1fb04f	0.155946
178	0x3e45fee6	0.19335517
179	0x3e001a15	0.1250995
180	0xbbad51f8	-0.0052893125
181	0x3ce05005	0.027381906
182	0xbdd878ec	-0.10569939
183	0xbe268ea0	-0.16265345
184	0xbdb36462	-0.08759381
185	0xbdc85e1c	-0.09783575
186	0x3df4d1d8	0.11954087
187	0x3e057c4f	0.13035701
188	0x3dac0a8c	0.08400449
189	0x3e003e86	0.12523851
190	0x3e58c9bf	0.2117071
191	0x3dd85aab	0.105641685
192	0x3dd135f9	0.102153726
193	0x3ddbf68d	0.10740385
194	0x3db895e7	0.090129666
195	0x3e0ff53a	0.1405839
196	0x3d7bef56	0.061507545
197	0x3dc4b23e	0.096043095
198	0x3d61e441	0.05514932
199	0x3db1fd6e	0.08690916
200	0x3d9c6d0b	0.07637986
201	0xbd61bc21	-0.055111054
202	0x3d845122	0.06460787
203	0x3dc8202f	0.097717635
204	0xbcf8b7f5	-0.030361155
205	0x3d9011c3	0.07034638
206	0x3cccbec1	0.024993302
207	0x3db573c5	0.08859972
208	0x3d43397f	0.047662254
209	0x3dbaf25e	0.09128259
210	0x3e5d4def	0.2161176
211	0x3d837c67	0.06420212
212	0x3e2f001b	0.17089884
213	0x3d402b8c	0.04691653
214	0xbd73963d	-0.05946945
215	0xbe21dd71	-0.1580713
216	0xbd9aa2f5	-0.07550613
217	0xbd8e8d5b	-0.06960555
218	0x3deda3ab	0.11603483
219	0x3dc6ad94	0.09701076
220	0x3db03e82	0.086056724
221	0x3e2d24fd	0.16908641
222	0x3e2a9c7d	0.16661258
223	0x3de409dd	0.11134694
224	0x3e21fbcf	0.15818714
225	0x3cfb1f8e	0.030654695
226	0x3d617766	0.055045508
227	0x3dc5a465	0.096504964
228	0x3ddac668	0.10682374
229	0x3e1fec98	0.15617597
230	0x3e005088	0.1253072
231	0x3df0ece2	0.11763932
232	0x3dfbe0b5	0.12298719
233	0x3d897db6	0.067134306
234	0xbcc40671	-0.023928853
235	0xbd399485	-0.045307655
236	0x3d7528aa	0.059853233
237	0xbdb088e2	-0.08619858
238	0x3d601da1	0.054715756
239	0x3cc8478f	0.024448184
240	0x3dc216b2	0.09476985
241	0x3de8af31	0.1136154
242	0x3ddad655	0.10685412
243	0x3d77d9fc	0.06051062
244	0x3d4937d9	0.049125526
245	0x3d4cd462	0.05000723
246	0x3c772c4c	0.015086245
247	0xbd940ed2	-0.07229389
248	0xbd7ac6fe	-0.06122493
249	0xbdca4570	-0.098765254
250	0x3d0c6693	0.03427751
251	0x3ca74969	0.020420747
252	0x3e2f9c45	0.17149456
253	0x3e44b9ae	0.19211456
254	0x3e47ed9f	0.19524239
255	0x3e0102cb	0.12598722

conv.weight f4 [3, 3, 3, 3]
0	0xbe164af6	-0.14677033
1	0x3dc27bd6	0.09496276
2	0xbcda7b6f	-0.026670186
3	0xbdb1e8f6	-0.08687012
4	0xbd87be92	-0.06628145
5	0x3c52e578	0.012872092
6	0xbdff2281	-0.12457753
7	0x3c50f741	0.012754262
8	0x3d291a97	0.041285124
9	0x3c69bee4	0.014266703
10	0xbe1740b5	-0.14770778
11	0x3e1a23f0	0.15052772
12	0x38c2b61d	9.284562e-05
13	0x3e3d95ad	0.18514128
14	0xbda6fc47	-0.08153587
15	0xbdc09c1e	-0.09404777
16	0x3e3f797f	0.18698691
17	0xbcda7ae7	-0.026669933
18	0xbda5bad3	-0.080922745
19	0xbcc0d6a0	-0.023539841
20	0xbdd7666d	-0.10517583
21	0xbe1ed04d	-0.15509148
22	0xbdd460d9	-0.10370035
23	0x3e0f4f0b	0.13994996
24	0x3de68a39	0.11256833
25	0x3d8e9640	0.06962252
26	0xbcaf6f2a	-0.021415312
27	0xbd9d4517	-0.076791935
28	0xbde83a37	-0.113392286
29	0xbd14b020	-0.03630078
30	0xbd973532	-0.07383193
31	0x3e18bffa	0.14916983
32	0xbe06d38c	-0.13166636
33	0xbdd73aeb	-0.105092846
34	0x3b02980c	0.0019927053
35	0xbe3c7b6e	-0.1840646
36	0x3d9bf960	0.07615924
37	0x3c2736ac	0.010205906
38	0x3d5d1350	0.053973496
39	0xbb33daea	-0.0027443715
40	0x3d968ace	0.07350694
41	0x3c4758f4	0.012167204
42	0x3c590e05	0.013247971
43	0x3c68a53e	0.014199553
44	0xbdfdef1a	-0.12399121
45	0x3e18f955	0.14938863
46	0x3dd90ad2	0.10597767
47	0x3da8c37e	0.08240412
48	0xbe0d8203	-0.13819127
49	0x3e3bf818	0.18356359
50	0x3dc85d32	0.097834006
51	0xbce4d5aa	-0.027933914
52	0x3e406ad2	0.18790749
53	0x3d86eed5	0.06588522
54	0x3e02d22d	0.12775488
55	0xbc449006	-0.0119972285
56	0x3db5edfb	0.08883282
57	0xbd8894a8	-0.06668979
58	0x3d9cac64	0.076500684
59	0xbe3ebd65	-0.18626936
60	0x3d9c7339	0.076391645
61	0xbdf0b3ef	-0.117530696
62	0xbcd80b51	-0.026372584
63	0xbe2bbfaa	-0.16772333
64	0x3daee312	0.08539404
65	0x3d40acb2	0.047039695
66	0x3e35aefc	0.17742532
67	0xbdedc016	-0.11608903
68	0xbdaaaceb	-0.08333763
69	0x39df911e	0.00042641995
70	0xbe2c87fe	-0.16848752
71	0xbdaa5c83	-0.083184265
72	0xbd314571	-0.043279115
73	0xbd85763b	-0.06516691
74	0xbe238895	-0.1597007
75	0x3df27bdf	0.11840033
76	0x3d76a20a	0.060213126
77	0xbdff9081	-0.12478734
78	0x3dcac771	0.09901322
79	0x3d4149c2	0.04718948
80	0x3e2b8ec1	0.16753675

conv.bias f4 [3]
0	0x3e03e3d6	0.12879881
1	0x3daf6a4b	0.08565196
2	0xbdafee4d	-0.08590374
